#map = affine_map<(d0, d1) -> (d0, d1)>
#map1 = affine_map<(d0, d1, d2) -> (d0, d2)>
#map2 = affine_map<(d0, d1, d2) -> (d0, d1)>
#map3 = affine_map<(d0, d1, d2) -> (d0, d1, d2)>
#map4 = affine_map<(d0, d1, d2, d3) -> (d0, d1)>
#map5 = affine_map<(d0, d1, d2, d3) -> (d0, d1, d2, d3)>
#map6 = affine_map<(d0, d1) -> (d1)>
#map7 = affine_map<(d0, d1, d2, d3) -> (d0, d2, d1, d3)>
#map8 = affine_map<(d0, d1, d2, d3) -> (d0, d3, d1, d2)>
#map9 = affine_map<(d0, d1, d2, d3) -> (d0, d1, d3, d2)>
#map10 = affine_map<(d0, d1, d2, d3) -> (d0, d2, d3)>
#map11 = affine_map<(d0, d1, d2, d3) -> (d0, d1, d2)>
#map12 = affine_map<(d0, d1, d2) -> (d1, d2, d0)>
module attributes {tf_saved_model.semantics} {
  func.func @main(%arg0: tensor<1x384xi32> {iree.identifier = "serving_default_input_word_ids:0", tf_saved_model.index_path = ["input_word_ids"]}, %arg1: tensor<1x384xi32> {iree.identifier = "serving_default_input_type_ids:0", tf_saved_model.index_path = ["input_type_ids"]}, %arg2: tensor<1x384xi32> {iree.identifier = "serving_default_input_mask:0", tf_saved_model.index_path = ["input_mask"]}) -> (tensor<1x384xf32> {iree.identifier = "StatefulPartitionedCall:0", tf_saved_model.index_path = ["end_positions"]}, tensor<1x384xf32> {iree.identifier = "StatefulPartitionedCall:1", tf_saved_model.index_path = ["start_positions"]}) attributes {tf_saved_model.exported_names = ["serving_default"]} {
    %cst = arith.constant dense<1.000000e+00> : tensor<1x128xf32>
    %cst_0 = arith.constant dense<5.000000e-01> : tensor<1x128xf32>
    %cst_1 = arith.constant dense<0.333333343> : tensor<1x128xf32>
    %cst_2 = arith.constant dense<2.500000e-01> : tensor<1x128xf32>
    %cst_3 = arith.constant dense<2.000000e-01> : tensor<1x128xf32>
    %cst_4 = arith.constant dense<0.166666672> : tensor<1x128xf32>
    %cst_5 = arith.constant dense<0.142857149> : tensor<1x128xf32>
    %cst_6 = arith.constant dense<1.250000e-01> : tensor<1x128xf32>
    %cst_7 = arith.constant dense<0.111111112> : tensor<1x512xf32>
    %cst_8 = arith.constant dense<1.000000e-01> : tensor<1x512xf32>
    %cst_9 = arith.constant dense<0.0909090936> : tensor<1x128xf32>
    %cst_10 = arith.constant dense<0.0833333358> : tensor<1x128xf32>
    %cst_11 = arith.constant dense<0.0769230798> : tensor<1x128xf32>
    %cst_12 = arith.constant dense<0.0714285746> : tensor<1x128xf32>
    %cst_13 = arith.constant dense<0.0666666701> : tensor<1x128xf32>
    %cst_14 = arith.constant dense<6.250000e-02> : tensor<1x128xf32>
    %cst_15 = arith.constant dense<0.0588235296> : tensor<1x128xf32>
    %cst_16 = arith.constant dense<0.055555556> : tensor<1x128xf32>
    %cst_17 = arith.constant dense<0.0526315793> : tensor<1x512xf32>
    %cst_18 = arith.constant dense<5.000000e-02> : tensor<1x512xf32>
    %cst_19 = arith.constant dense<0.0476190485> : tensor<1x128xf32>
    %cst_20 = arith.constant dense<0.0454545468> : tensor<1x128xf32>
    %cst_21 = arith.constant dense<0.0434782617> : tensor<1x128xf32>
    %cst_22 = arith.constant dense<0.0416666679> : tensor<1x128xf32>
    %cst_23 = arith.constant dense<4.000000e-02> : tensor<1x128xf32>
    %cst_24 = arith.constant dense<0.0384615399> : tensor<1x128xf32>
    %cst_25 = arith.constant dense<0.0370370373> : tensor<1x128xf32>
    %cst_26 = arith.constant dense<0.0357142873> : tensor<1x128xf32>
    %cst_27 = arith.constant dense<0.0344827585> : tensor<1x512xf32>
    %cst_28 = arith.constant dense<0.0333333351> : tensor<1x512xf32>
    %cst_29 = arith.constant dense<0.0322580636> : tensor<1x128xf32>
    %cst_30 = arith.constant dense<3.125000e-02> : tensor<1x128xf32>
    %cst_31 = arith.constant dense<0.0303030312> : tensor<1x128xf32>
    %cst_32 = arith.constant dense<0.0294117648> : tensor<1x128xf32>
    %cst_33 = arith.constant dense<0.0285714287> : tensor<1x128xf32>
    %cst_34 = arith.constant dense<0.027777778> : tensor<1x128xf32>
    %cst_35 = arith.constant dense<0.0270270277> : tensor<1x128xf32>
    %cst_36 = arith.constant dense<0.0263157897> : tensor<1x128xf32>
    %cst_37 = arith.constant dense<0.025641026> : tensor<1x512xf32>
    %cst_38 = arith.constant dense<2.500000e-02> : tensor<1x512xf32>
    %cst_39 = arith.constant dense<0.024390243> : tensor<1x128xf32>
    %cst_40 = arith.constant dense<0.0238095243> : tensor<1x128xf32>
    %cst_41 = arith.constant dense<0.0232558139> : tensor<1x128xf32>
    %cst_42 = arith.constant dense<0.0227272734> : tensor<1x128xf32>
    %cst_43 = arith.constant dense<0.0222222228> : tensor<1x128xf32>
    %cst_44 = arith.constant dense<0.0217391308> : tensor<1x128xf32>
    %cst_45 = arith.constant dense<0.0212765951> : tensor<1x128xf32>
    %cst_46 = arith.constant dense<0.020833334> : tensor<1x128xf32>
    %cst_47 = arith.constant dense<0.0204081628> : tensor<1x512xf32>
    %cst_48 = arith.constant dense<2.000000e-02> : tensor<1x512xf32>
    %cst_49 = arith.constant dense<0.0196078438> : tensor<1x128xf32>
    %cst_50 = arith.constant dense<0.0192307699> : tensor<1x128xf32>
    %cst_51 = arith.constant dense<0.0188679248> : tensor<1x128xf32>
    %cst_52 = arith.constant dense<0.0185185187> : tensor<1x128xf32>
    %cst_53 = arith.constant dense<0.0181818176> : tensor<1x128xf32>
    %cst_54 = arith.constant dense<0.0178571437> : tensor<1x128xf32>
    %cst_55 = arith.constant dense<0.0175438598> : tensor<1x128xf32>
    %cst_56 = arith.constant dense<0.0172413792> : tensor<1x128xf32>
    %cst_57 = arith.constant dense<0.0169491526> : tensor<1x512xf32>
    %cst_58 = arith.constant dense<0.0166666675> : tensor<1x512xf32>
    %cst_59 = arith.constant dense<0.0163934417> : tensor<1x128xf32>
    %cst_60 = arith.constant dense<0.0161290318> : tensor<1x128xf32>
    %cst_61 = arith.constant dense<0.0158730168> : tensor<1x128xf32>
    %cst_62 = arith.constant dense<1.562500e-02> : tensor<1x128xf32>
    %cst_63 = arith.constant dense<0.0153846154> : tensor<1x128xf32>
    %cst_64 = arith.constant dense<0.0151515156> : tensor<1x128xf32>
    %cst_65 = arith.constant dense<0.0149253728> : tensor<1x128xf32>
    %cst_66 = arith.constant dense<0.0147058824> : tensor<1x128xf32>
    %cst_67 = arith.constant dense<0.0144927539> : tensor<1x512xf32>
    %cst_68 = arith.constant dense<0.0142857144> : tensor<1x512xf32>
    %cst_69 = arith.constant dense<0.0140845068> : tensor<1x128xf32>
    %cst_70 = arith.constant dense<0.013888889> : tensor<1x128xf32>
    %cst_71 = arith.constant dense<0.01369863> : tensor<1x128xf32>
    %cst_72 = arith.constant dense<0.0135135138> : tensor<1x128xf32>
    %cst_73 = arith.constant dense<0.0133333337> : tensor<1x128xf32>
    %cst_74 = arith.constant dense<0.0131578948> : tensor<1x128xf32>
    %cst_75 = arith.constant dense<0.012987013> : tensor<1x128xf32>
    %cst_76 = arith.constant dense<0.012820513> : tensor<1x128xf32>
    %cst_77 = arith.constant dense<0.0126582282> : tensor<1x512xf32>
    %cst_78 = arith.constant dense<1.250000e-02> : tensor<1x512xf32>
    %cst_79 = arith.constant dense<0.0123456791> : tensor<1x128xf32>
    %cst_80 = arith.constant dense<0.0121951215> : tensor<1x128xf32>
    %cst_81 = arith.constant dense<0.0120481923> : tensor<1x128xf32>
    %cst_82 = arith.constant dense<0.0119047621> : tensor<1x128xf32>
    %cst_83 = arith.constant dense<0.0117647061> : tensor<1x128xf32>
    %cst_84 = arith.constant dense<0.0116279069> : tensor<1x128xf32>
    %cst_85 = arith.constant dense<0.0114942528> : tensor<1x128xf32>
    %cst_86 = arith.constant dense<0.0113636367> : tensor<1x128xf32>
    %cst_87 = arith.constant dense<0.0112359552> : tensor<1x512xf32>
    %cst_88 = arith.constant dense<0.0111111114> : tensor<1x512xf32>
    %cst_89 = arith.constant dense<0.0109890113> : tensor<1x128xf32>
    %cst_90 = arith.constant dense<0.0108695654> : tensor<1x128xf32>
    %cst_91 = arith.constant dense<0.0107526882> : tensor<1x128xf32>
    %cst_92 = arith.constant dense<0.0106382975> : tensor<1x128xf32>
    %cst_93 = arith.constant dense<0.0105263162> : tensor<1x128xf32>
    %cst_94 = arith.constant dense<0.010416667> : tensor<1x128xf32>
    %cst_95 = arith.constant dense<0.010309278> : tensor<1x128xf32>
    %cst_96 = arith.constant dense<0.0102040814> : tensor<1x128xf32>
    %cst_97 = arith.constant dense<0.0101010101> : tensor<1x512xf32>
    %cst_98 = arith.constant dense<0.00999999977> : tensor<1x512xf32>
    %cst_99 = arith.constant dense<9.900990e-03> : tensor<1x128xf32>
    %cst_100 = arith.constant dense<0.00980392192> : tensor<1x128xf32>
    %cst_101 = arith.constant dense<0.00970873795> : tensor<1x128xf32>
    %cst_102 = arith.constant dense<0.00961538497> : tensor<1x128xf32>
    %cst_103 = arith.constant dense<9.523810e-03> : tensor<1x128xf32>
    %cst_104 = arith.constant dense<0.0094339624> : tensor<1x128xf32>
    %cst_105 = arith.constant dense<0.00934579409> : tensor<1x128xf32>
    %cst_106 = arith.constant dense<0.00925925932> : tensor<1x128xf32>
    %cst_107 = arith.constant dense<0.00917431153> : tensor<1x512xf32>
    %cst_108 = arith.constant dense<0.0090909088> : tensor<1x512xf32>
    %cst_109 = arith.constant dense<0.00900900922> : tensor<1x128xf32>
    %cst_110 = arith.constant dense<0.00892857183> : tensor<1x128xf32>
    %cst_111 = arith.constant dense<0.00884955748> : tensor<1x128xf32>
    %cst_112 = arith.constant dense<0.00877192988> : tensor<1x128xf32>
    %cst_113 = arith.constant dense<0.00869565178> : tensor<1x128xf32>
    %cst_114 = arith.constant dense<8.620690e-03> : tensor<1x128xf32>
    %cst_115 = arith.constant dense<0.00854700897> : tensor<1x128xf32>
    %cst_116 = arith.constant dense<0.00847457629> : tensor<1x128xf32>
    %cst_117 = arith.constant dense<0.00840336177> : tensor<1x512xf32>
    %cst_118 = arith.constant dense<0.00833333377> : tensor<1x512xf32>
    %cst_119 = arith.constant dense<0.00826446246> : tensor<1x128xf32>
    %cst_120 = arith.constant dense<0.00819672085> : tensor<1x128xf32>
    %cst_121 = arith.constant dense<0.008130081> : tensor<1x128xf32>
    %cst_122 = arith.constant dense<0.00806451589> : tensor<1x128xf32>
    %cst_123 = arith.constant dense<8.000000e-03> : tensor<1x128xf32>
    %cst_124 = arith.constant dense<0.00793650839> : tensor<1x128xf32>
    %cst_125 = arith.constant dense<0.00787401571> : tensor<1x128xf32>
    %cst_126 = arith.constant dense<7.812500e-03> : tensor<1x128xf32>
    %cst_127 = arith.constant dense<0.00775193795> : tensor<1x512xf32>
    %cst_128 = arith.constant dense<0.0076923077> : tensor<1x512xf32>
    %cst_129 = arith.constant dense<0.00763358781> : tensor<1x128xf32>
    %cst_130 = arith.constant dense<0.0075757578> : tensor<1x128xf32>
    %cst_131 = arith.constant dense<0.00751879718> : tensor<1x128xf32>
    %cst_132 = arith.constant dense<0.00746268639> : tensor<1x128xf32>
    %cst_133 = arith.constant dense<0.00740740728> : tensor<1x128xf32>
    %cst_134 = arith.constant dense<0.0073529412> : tensor<1x128xf32>
    %cst_135 = arith.constant dense<7.299270e-03> : tensor<1x128xf32>
    %cst_136 = arith.constant dense<0.00724637694> : tensor<1x128xf32>
    %cst_137 = arith.constant dense<0.00719424477> : tensor<1x512xf32>
    %cst_138 = arith.constant dense<0.00714285718> : tensor<1x512xf32>
    %cst_139 = arith.constant dense<0.00709219835> : tensor<1x128xf32>
    %cst_140 = arith.constant dense<0.00704225338> : tensor<1x128xf32>
    %cst_141 = arith.constant dense<0.00699300691> : tensor<1x128xf32>
    %cst_142 = arith.constant dense<0.0069444445> : tensor<1x128xf32>
    %cst_143 = arith.constant dense<0.0068965517> : tensor<1x128xf32>
    %cst_144 = arith.constant dense<0.00684931502> : tensor<1x128xf32>
    %cst_145 = arith.constant dense<0.00680272094> : tensor<1x128xf32>
    %cst_146 = arith.constant dense<0.00675675692> : tensor<1x128xf32>
    %cst_147 = arith.constant dense<0.00671140943> : tensor<1x512xf32>
    %cst_148 = arith.constant dense<0.00666666683> : tensor<1x512xf32>
    %cst_149 = arith.constant dense<0.00662251655> : tensor<1x128xf32>
    %cst_150 = arith.constant dense<0.00657894742> : tensor<1x128xf32>
    %cst_151 = arith.constant dense<0.00653594779> : tensor<1x128xf32>
    %cst_152 = arith.constant dense<0.00649350649> : tensor<1x128xf32>
    %cst_153 = arith.constant dense<0.0064516128> : tensor<1x128xf32>
    %cst_154 = arith.constant dense<0.00641025649> : tensor<1x128xf32>
    %cst_155 = arith.constant dense<0.00636942684> : tensor<1x128xf32>
    %cst_156 = arith.constant dense<0.00632911408> : tensor<1x128xf32>
    %cst_157 = arith.constant dense<0.00628930796> : tensor<1x512xf32>
    %cst_158 = arith.constant dense<6.250000e-03> : tensor<1x512xf32>
    %cst_159 = arith.constant dense<0.00621118024> : tensor<1x128xf32>
    %cst_160 = arith.constant dense<0.00617283955> : tensor<1x128xf32>
    %cst_161 = arith.constant dense<0.00613496918> : tensor<1x128xf32>
    %cst_162 = arith.constant dense<0.00609756075> : tensor<1x128xf32>
    %cst_163 = arith.constant dense<0.00606060587> : tensor<1x128xf32>
    %cst_164 = arith.constant dense<0.00602409616> : tensor<1x128xf32>
    %cst_165 = arith.constant dense<0.00598802418> : tensor<1x128xf32>
    %cst_166 = arith.constant dense<0.00595238106> : tensor<1x128xf32>
    %cst_167 = arith.constant dense<5.917160e-03> : tensor<1x512xf32>
    %cst_168 = arith.constant dense<0.00588235306> : tensor<1x512xf32>
    %cst_169 = arith.constant dense<0.00584795326> : tensor<1x128xf32>
    %cst_170 = arith.constant dense<0.00581395347> : tensor<1x128xf32>
    %cst_171 = arith.constant dense<0.00578034669> : tensor<1x128xf32>
    %cst_172 = arith.constant dense<0.00574712642> : tensor<1x128xf32>
    %cst_173 = arith.constant dense<0.00571428565> : tensor<1x128xf32>
    %cst_174 = arith.constant dense<0.00568181835> : tensor<1x128xf32>
    %cst_175 = arith.constant dense<0.00564971752> : tensor<1x128xf32>
    %cst_176 = arith.constant dense<0.00561797759> : tensor<1x128xf32>
    %cst_177 = arith.constant dense<0.00558659201> : tensor<1x512xf32>
    %cst_178 = arith.constant dense<0.00555555569> : tensor<1x512xf32>
    %cst_179 = arith.constant dense<0.00552486209> : tensor<1x128xf32>
    %cst_180 = arith.constant dense<0.00549450563> : tensor<1x128xf32>
    %cst_181 = arith.constant dense<0.00546448072> : tensor<1x128xf32>
    %cst_182 = arith.constant dense<0.00543478271> : tensor<1x128xf32>
    %cst_183 = arith.constant dense<0.00540540554> : tensor<1x128xf32>
    %cst_184 = arith.constant dense<0.00537634408> : tensor<1x128xf32>
    %cst_185 = arith.constant dense<0.00534759369> : tensor<1x128xf32>
    %cst_186 = arith.constant dense<0.00531914877> : tensor<1x128xf32>
    %cst_187 = arith.constant dense<0.00529100513> : tensor<1x512xf32>
    %cst_188 = arith.constant dense<0.00526315812> : tensor<1x512xf32>
    %cst_189 = arith.constant dense<0.00523560215> : tensor<1x128xf32>
    %cst_190 = arith.constant dense<0.00520833349> : tensor<1x128xf32>
    %cst_191 = arith.constant dense<0.00518134702> : tensor<1x128xf32>
    %cst_192 = arith.constant dense<0.00515463902> : tensor<1x128xf32>
    %cst_193 = arith.constant dense<0.00512820529> : tensor<1x128xf32>
    %cst_194 = arith.constant dense<0.00510204071> : tensor<1x128xf32>
    %cst_195 = arith.constant dense<0.00507614203> : tensor<1x128xf32>
    %cst_196 = arith.constant dense<0.00505050505> : tensor<1x128xf32>
    %cst_197 = arith.constant dense<0.00502512557> : tensor<1x512xf32>
    %cst_198 = arith.constant dense<5.000000e-03> : tensor<1x512xf32>
    %cst_199 = arith.constant dense<0.00497512426> : tensor<1x128xf32>
    %cst_200 = arith.constant dense<0.00495049497> : tensor<1x128xf32>
    %cst_201 = arith.constant dense<0.00492610829> : tensor<1x128xf32>
    %cst_202 = arith.constant dense<0.00490196096> : tensor<1x128xf32>
    %cst_203 = arith.constant dense<0.00487804879> : tensor<1x128xf32>
    %cst_204 = arith.constant dense<0.00485436898> : tensor<1x128xf32>
    %cst_205 = arith.constant dense<0.00483091781> : tensor<1x128xf32>
    %cst_206 = arith.constant dense<0.00480769249> : tensor<1x128xf32>
    %cst_207 = arith.constant dense<0.00478468882> : tensor<1x512xf32>
    %cst_208 = arith.constant dense<0.00476190494> : tensor<1x512xf32>
    %cst_209 = arith.constant dense<0.00473933667> : tensor<1x128xf32>
    %cst_210 = arith.constant dense<0.0047169812> : tensor<1x128xf32>
    %cst_211 = arith.constant dense<0.00469483575> : tensor<1x128xf32>
    %cst_212 = arith.constant dense<0.00467289705> : tensor<1x128xf32>
    %cst_213 = arith.constant dense<0.00465116277> : tensor<1x128xf32>
    %cst_214 = arith.constant dense<0.00462962966> : tensor<1x128xf32>
    %cst_215 = arith.constant dense<0.00460829493> : tensor<1x128xf32>
    %cst_216 = arith.constant dense<0.00458715577> : tensor<1x128xf32>
    %cst_217 = arith.constant dense<4.566210e-03> : tensor<1x512xf32>
    %cst_218 = arith.constant dense<0.0045454544> : tensor<1x512xf32>
    %cst_219 = arith.constant dense<0.00452488707> : tensor<1x128xf32>
    %cst_220 = arith.constant dense<0.00450450461> : tensor<1x128xf32>
    %cst_221 = arith.constant dense<0.00448430516> : tensor<1x128xf32>
    %cst_222 = arith.constant dense<0.00446428591> : tensor<1x128xf32>
    %cst_223 = arith.constant dense<0.00444444455> : tensor<1x128xf32>
    %cst_224 = arith.constant dense<0.00442477874> : tensor<1x128xf32>
    %cst_225 = arith.constant dense<0.00440528616> : tensor<1x128xf32>
    %cst_226 = arith.constant dense<0.00438596494> : tensor<1x128xf32>
    %cst_227 = arith.constant dense<0.0043668123> : tensor<1x512xf32>
    %cst_228 = arith.constant dense<0.00434782589> : tensor<1x512xf32>
    %cst_229 = arith.constant dense<0.00432900432> : tensor<1x128xf32>
    %cst_230 = arith.constant dense<0.00431034481> : tensor<1x128xf32>
    %cst_231 = arith.constant dense<0.00429184549> : tensor<1x128xf32>
    %cst_232 = arith.constant dense<0.00427350448> : tensor<1x128xf32>
    %cst_233 = arith.constant dense<0.00425531901> : tensor<1x128xf32>
    %cst_234 = arith.constant dense<0.00423728814> : tensor<1x128xf32>
    %cst_235 = arith.constant dense<0.00421940908> : tensor<1x128xf32>
    %cst_236 = arith.constant dense<0.00420168089> : tensor<1x128xf32>
    %cst_237 = arith.constant dense<0.00418410031> : tensor<1x512xf32>
    %cst_238 = arith.constant dense<0.00416666688> : tensor<1x512xf32>
    %cst_239 = arith.constant 3.40282347E+38 : f32
    %cst_240 = arith.constant 1.000000e+00 : f32
    %cst_241 = arith.constant -3.40282347E+38 : f32
    %cst_242 = arith.constant dense<0.00414937781> : tensor<1x1xf32>
    %cst_243 = arith.constant dense<0.00413223123> : tensor<1x1xf32>
    %cst_244 = arith.constant dense<0.00411522621> : tensor<1x384xf32>
    %cst_245 = arith.constant dense<0.00409836043> : tensor<384x512xf32>
    %cst_246 = arith.constant dense<0.00408163248> : tensor<512x128xf32>
    %cst_247 = arith.constant dense<0.0040650405> : tensor<512x128xf32>
    %cst_248 = arith.constant dense<0.0040485831> : tensor<512x128xf32>
    %cst_249 = arith.constant dense<0.00403225794> : tensor<128x128xf32>
    %cst_250 = arith.constant dense<0.00401606411> : tensor<128x128xf32>
    %cst_251 = arith.constant dense<4.000000e-03> : tensor<128x128xf32>
    %cst_252 = arith.constant dense<0.00398406386> : tensor<128x512xf32>
    %cst_253 = arith.constant dense<0.0039682542> : tensor<512x128xf32>
    %cst_254 = arith.constant dense<0.00395256933> : tensor<128x512xf32>
    %cst_255 = arith.constant dense<0.00393700786> : tensor<512x128xf32>
    %cst_256 = arith.constant dense<0.00392156886> : tensor<128x512xf32>
    %cst_257 = arith.constant dense<3.906250e-03> : tensor<512x128xf32>
    %cst_258 = arith.constant dense<0.00389105058> : tensor<128x512xf32>
    %cst_259 = arith.constant dense<0.00387596898> : tensor<512x128xf32>
    %cst_260 = arith.constant dense<0.00386100379> : tensor<128x512xf32>
    %cst_261 = arith.constant dense<0.00384615385> : tensor<512x128xf32>
    %cst_262 = arith.constant dense<0.00383141753> : tensor<512x128xf32>
    %cst_263 = arith.constant dense<0.00381679391> : tensor<512x128xf32>
    %cst_264 = arith.constant dense<0.00380228134> : tensor<128x128xf32>
    %cst_265 = arith.constant dense<0.0037878789> : tensor<128x128xf32>
    %cst_266 = arith.constant dense<0.00377358496> : tensor<128x128xf32>
    %cst_267 = arith.constant dense<0.00375939859> : tensor<128x512xf32>
    %cst_268 = arith.constant dense<0.00374531839> : tensor<512x128xf32>
    %cst_269 = arith.constant dense<0.0037313432> : tensor<128x512xf32>
    %cst_270 = arith.constant dense<0.00371747208> : tensor<512x128xf32>
    %cst_271 = arith.constant dense<0.00370370364> : tensor<128x512xf32>
    %cst_272 = arith.constant dense<0.00369003695> : tensor<512x128xf32>
    %cst_273 = arith.constant dense<0.0036764706> : tensor<128x512xf32>
    %cst_274 = arith.constant dense<0.00366300368> : tensor<512x128xf32>
    %cst_275 = arith.constant dense<0.00364963501> : tensor<128x512xf32>
    %cst_276 = arith.constant dense<0.00363636366> : tensor<512x128xf32>
    %cst_277 = arith.constant dense<0.00362318847> : tensor<512x128xf32>
    %cst_278 = arith.constant dense<0.00361010828> : tensor<512x128xf32>
    %cst_279 = arith.constant dense<0.00359712238> : tensor<128x128xf32>
    %cst_280 = arith.constant dense<0.00358422939> : tensor<128x128xf32>
    %cst_281 = arith.constant dense<0.00357142859> : tensor<128x128xf32>
    %cst_282 = arith.constant dense<0.00355871883> : tensor<128x512xf32>
    %cst_283 = arith.constant dense<0.00354609918> : tensor<512x128xf32>
    %cst_284 = arith.constant dense<0.00353356893> : tensor<128x512xf32>
    %cst_285 = arith.constant dense<0.00352112669> : tensor<512x128xf32>
    %cst_286 = arith.constant dense<0.003508772> : tensor<128x512xf32>
    %cst_287 = arith.constant dense<0.00349650346> : tensor<512x128xf32>
    %cst_288 = arith.constant dense<0.00348432059> : tensor<128x512xf32>
    %cst_289 = arith.constant dense<0.00347222225> : tensor<512x128xf32>
    %cst_290 = arith.constant dense<0.00346020772> : tensor<128x512xf32>
    %cst_291 = arith.constant dense<0.00344827585> : tensor<512x128xf32>
    %cst_292 = arith.constant dense<0.00343642617> : tensor<512x128xf32>
    %cst_293 = arith.constant dense<0.00342465751> : tensor<512x128xf32>
    %cst_294 = arith.constant dense<0.00341296918> : tensor<128x128xf32>
    %cst_295 = arith.constant dense<0.00340136047> : tensor<128x128xf32>
    %cst_296 = arith.constant dense<0.00338983047> : tensor<128x128xf32>
    %cst_297 = arith.constant dense<0.00337837846> : tensor<128x512xf32>
    %cst_298 = arith.constant dense<0.00336700329> : tensor<512x128xf32>
    %cst_299 = arith.constant dense<0.00335570471> : tensor<128x512xf32>
    %cst_300 = arith.constant dense<0.00334448158> : tensor<512x128xf32>
    %cst_301 = arith.constant dense<0.00333333341> : tensor<128x512xf32>
    %cst_302 = arith.constant dense<0.00332225906> : tensor<512x128xf32>
    %cst_303 = arith.constant dense<0.00331125828> : tensor<128x512xf32>
    %cst_304 = arith.constant dense<0.00330033014> : tensor<512x128xf32>
    %cst_305 = arith.constant dense<0.00328947371> : tensor<128x512xf32>
    %cst_306 = arith.constant dense<0.00327868853> : tensor<512x128xf32>
    %cst_307 = arith.constant dense<0.00326797389> : tensor<512x128xf32>
    %cst_308 = arith.constant dense<0.00325732888> : tensor<512x128xf32>
    %cst_309 = arith.constant dense<0.00324675324> : tensor<128x128xf32>
    %cst_310 = arith.constant dense<0.00323624606> : tensor<128x128xf32>
    %cst_311 = arith.constant dense<0.0032258064> : tensor<128x128xf32>
    %cst_312 = arith.constant dense<0.00321543403> : tensor<128x512xf32>
    %cst_313 = arith.constant dense<0.00320512825> : tensor<512x128xf32>
    %cst_314 = arith.constant dense<0.00319488812> : tensor<128x512xf32>
    %cst_315 = arith.constant dense<0.00318471342> : tensor<512x128xf32>
    %cst_316 = arith.constant dense<0.00317460322> : tensor<128x512xf32>
    %cst_317 = arith.constant dense<0.00316455704> : tensor<512x128xf32>
    %cst_318 = arith.constant dense<0.00315457419> : tensor<128x512xf32>
    %cst_319 = arith.constant dense<0.00314465398> : tensor<512x128xf32>
    %cst_320 = arith.constant dense<0.00313479616> : tensor<128x512xf32>
    %cst_321 = arith.constant dense<3.125000e-03> : tensor<512x128xf32>
    %cst_322 = arith.constant dense<0.0031152647> : tensor<512x128xf32>
    %cst_323 = arith.constant dense<0.00310559012> : tensor<512x128xf32>
    %cst_324 = arith.constant dense<0.00309597515> : tensor<128x128xf32>
    %cst_325 = arith.constant dense<0.00308641978> : tensor<128x128xf32>
    %cst_326 = arith.constant dense<0.00307692308> : tensor<128x128xf32>
    %cst_327 = arith.constant dense<0.00306748459> : tensor<128x512xf32>
    %cst_328 = arith.constant dense<0.00305810408> : tensor<512x128xf32>
    %cst_329 = arith.constant dense<0.00304878037> : tensor<128x512xf32>
    %cst_330 = arith.constant dense<0.00303951371> : tensor<512x128xf32>
    %cst_331 = arith.constant dense<0.00303030293> : tensor<128x512xf32>
    %cst_332 = arith.constant dense<0.00302114803> : tensor<512x128xf32>
    %cst_333 = arith.constant dense<0.00301204808> : tensor<128x512xf32>
    %cst_334 = arith.constant dense<0.00300300308> : tensor<512x128xf32>
    %cst_335 = arith.constant dense<0.00299401209> : tensor<128x512xf32>
    %cst_336 = arith.constant dense<0.00298507465> : tensor<512x128xf32>
    %cst_337 = arith.constant dense<0.00297619053> : tensor<512x128xf32>
    %cst_338 = arith.constant dense<0.00296735903> : tensor<512x128xf32>
    %cst_339 = arith.constant dense<2.958580e-03> : tensor<128x128xf32>
    %cst_340 = arith.constant dense<0.0029498525> : tensor<128x128xf32>
    %cst_341 = arith.constant dense<0.00294117653> : tensor<128x128xf32>
    %cst_342 = arith.constant dense<0.00293255132> : tensor<128x512xf32>
    %cst_343 = arith.constant dense<0.00292397663> : tensor<512x128xf32>
    %cst_344 = arith.constant dense<0.002915452> : tensor<128x512xf32>
    %cst_345 = arith.constant dense<0.00290697673> : tensor<512x128xf32>
    %cst_346 = arith.constant dense<0.00289855083> : tensor<128x512xf32>
    %cst_347 = arith.constant dense<0.00289017335> : tensor<512x128xf32>
    %cst_348 = arith.constant dense<0.0028818443> : tensor<128x512xf32>
    %cst_349 = arith.constant dense<0.00287356321> : tensor<512x128xf32>
    %cst_350 = arith.constant dense<0.00286532962> : tensor<128x512xf32>
    %cst_351 = arith.constant dense<0.00285714283> : tensor<512x128xf32>
    %cst_352 = arith.constant dense<0.00284900283> : tensor<512x128xf32>
    %cst_353 = arith.constant dense<0.00284090918> : tensor<512x128xf32>
    %cst_354 = arith.constant dense<0.00283286115> : tensor<128x128xf32>
    %cst_355 = arith.constant dense<0.00282485876> : tensor<128x128xf32>
    %cst_356 = arith.constant dense<0.00281690131> : tensor<128x128xf32>
    %cst_357 = arith.constant dense<0.00280898879> : tensor<128x512xf32>
    %cst_358 = arith.constant dense<0.00280112051> : tensor<512x128xf32>
    %cst_359 = arith.constant dense<0.00279329601> : tensor<128x512xf32>
    %cst_360 = arith.constant dense<0.00278551527> : tensor<512x128xf32>
    %cst_361 = arith.constant dense<0.00277777785> : tensor<128x512xf32>
    %cst_362 = arith.constant dense<0.00277008303> : tensor<512x128xf32>
    %cst_363 = arith.constant dense<0.00276243105> : tensor<128x512xf32>
    %cst_364 = arith.constant dense<0.00275482098> : tensor<512x128xf32>
    %cst_365 = arith.constant dense<0.00274725282> : tensor<128x512xf32>
    %cst_366 = arith.constant dense<0.0027397261> : tensor<512x128xf32>
    %cst_367 = arith.constant dense<0.00273224036> : tensor<512x128xf32>
    %cst_368 = arith.constant dense<0.0027247956> : tensor<512x128xf32>
    %cst_369 = arith.constant dense<0.00271739135> : tensor<128x128xf32>
    %cst_370 = arith.constant dense<0.00271002715> : tensor<128x128xf32>
    %cst_371 = arith.constant dense<0.00270270277> : tensor<128x128xf32>
    %cst_372 = arith.constant dense<0.00269541773> : tensor<128x512xf32>
    %cst_373 = arith.constant dense<0.00268817204> : tensor<512x128xf32>
    %cst_374 = arith.constant dense<0.00268096523> : tensor<128x512xf32>
    %cst_375 = arith.constant dense<0.00267379684> : tensor<512x128xf32>
    %cst_376 = arith.constant dense<0.00266666664> : tensor<128x512xf32>
    %cst_377 = arith.constant dense<0.00265957438> : tensor<512x128xf32>
    %cst_378 = arith.constant dense<0.00265251985> : tensor<128x512xf32>
    %cst_379 = arith.constant dense<0.00264550257> : tensor<512x128xf32>
    %cst_380 = arith.constant dense<0.00263852254> : tensor<128x512xf32>
    %cst_381 = arith.constant dense<0.00263157906> : tensor<512x128xf32>
    %cst_382 = arith.constant dense<0.00262467191> : tensor<512x128xf32>
    %cst_383 = arith.constant dense<0.00261780107> : tensor<512x128xf32>
    %cst_384 = arith.constant dense<0.0026109661> : tensor<128x128xf32>
    %cst_385 = arith.constant dense<0.00260416674> : tensor<128x128xf32>
    %cst_386 = arith.constant dense<0.00259740255> : tensor<128x128xf32>
    %cst_387 = arith.constant dense<0.00259067351> : tensor<128x512xf32>
    %cst_388 = arith.constant dense<0.0025839794> : tensor<512x128xf32>
    %cst_389 = arith.constant dense<0.00257731951> : tensor<128x512xf32>
    %cst_390 = arith.constant dense<0.00257069408> : tensor<512x128xf32>
    %cst_391 = arith.constant dense<0.00256410264> : tensor<128x512xf32>
    %cst_392 = arith.constant dense<0.00255754474> : tensor<512x128xf32>
    %cst_393 = arith.constant dense<0.00255102036> : tensor<128x512xf32>
    %cst_394 = arith.constant dense<0.00254452927> : tensor<512x128xf32>
    %cst_395 = arith.constant dense<0.00253807101> : tensor<128x512xf32>
    %cst_396 = arith.constant dense<0.00253164559> : tensor<512x128xf32>
    %cst_397 = arith.constant dense<0.00252525252> : tensor<512x128xf32>
    %cst_398 = arith.constant dense<0.00251889159> : tensor<512x128xf32>
    %cst_399 = arith.constant dense<0.00251256279> : tensor<128x128xf32>
    %cst_400 = arith.constant dense<0.00250626565> : tensor<128x128xf32>
    %cst_401 = arith.constant dense<2.500000e-03> : tensor<128x128xf32>
    %cst_402 = arith.constant dense<0.00249376567> : tensor<128x512xf32>
    %cst_403 = arith.constant dense<0.00248756213> : tensor<512x128xf32>
    %cst_404 = arith.constant dense<0.00248138956> : tensor<128x512xf32>
    %cst_405 = arith.constant dense<0.00247524749> : tensor<512x128xf32>
    %cst_406 = arith.constant dense<0.00246913591> : tensor<128x512xf32>
    %cst_407 = arith.constant dense<0.00246305414> : tensor<512x128xf32>
    %cst_408 = arith.constant dense<0.00245700241> : tensor<128x512xf32>
    %cst_409 = arith.constant dense<0.00245098048> : tensor<512x128xf32>
    %cst_410 = arith.constant dense<0.00244498788> : tensor<128x512xf32>
    %cst_411 = arith.constant dense<0.00243902439> : tensor<512x128xf32>
    %cst_412 = arith.constant dense<2.433090e-03> : tensor<512x128xf32>
    %cst_413 = arith.constant dense<0.00242718449> : tensor<512x128xf32>
    %cst_414 = arith.constant dense<0.00242130761> : tensor<128x128xf32>
    %cst_415 = arith.constant dense<0.0024154589> : tensor<128x128xf32>
    %cst_416 = arith.constant dense<0.0024096386> : tensor<128x128xf32>
    %cst_417 = arith.constant dense<0.00240384624> : tensor<128x512xf32>
    %cst_418 = arith.constant dense<0.00239808159> : tensor<512x128xf32>
    %cst_419 = arith.constant dense<0.00239234441> : tensor<128x512xf32>
    %cst_420 = arith.constant dense<0.00238663494> : tensor<512x128xf32>
    %cst_421 = arith.constant dense<0.00238095247> : tensor<128x512xf32>
    %cst_422 = arith.constant dense<0.00237529702> : tensor<512x128xf32>
    %cst_423 = arith.constant dense<0.00236966833> : tensor<128x512xf32>
    %cst_424 = arith.constant dense<0.0023640662> : tensor<512x128xf32>
    %cst_425 = arith.constant dense<0.0023584906> : tensor<128x512xf32>
    %cst_426 = arith.constant dense<0.00235294108> : tensor<512x128xf32>
    %cst_427 = arith.constant dense<0.00234741787> : tensor<512x128xf32>
    %cst_428 = arith.constant dense<0.00234192028> : tensor<512x128xf32>
    %cst_429 = arith.constant dense<0.00233644852> : tensor<128x128xf32>
    %cst_430 = arith.constant dense<0.00233100238> : tensor<128x128xf32>
    %cst_431 = arith.constant dense<0.00232558139> : tensor<128x128xf32>
    %cst_432 = arith.constant dense<0.00232018554> : tensor<128x512xf32>
    %cst_433 = arith.constant dense<0.00231481483> : tensor<512x128xf32>
    %cst_434 = arith.constant dense<0.00230946881> : tensor<128x512xf32>
    %cst_435 = arith.constant dense<0.00230414746> : tensor<512x128xf32>
    %cst_436 = arith.constant dense<0.00229885057> : tensor<128x512xf32>
    %cst_437 = arith.constant dense<0.00229357788> : tensor<512x128xf32>
    %cst_438 = arith.constant dense<0.00228832942> : tensor<128x512xf32>
    %cst_439 = arith.constant dense<0.00228310493> : tensor<512x128xf32>
    %cst_440 = arith.constant dense<0.00227790442> : tensor<128x512xf32>
    %cst_441 = arith.constant dense<0.0022727272> : tensor<512x128xf32>
    %cst_442 = arith.constant dense<0.00226757373> : tensor<512x128xf32>
    %cst_443 = arith.constant dense<0.00226244354> : tensor<512x128xf32>
    %cst_444 = arith.constant dense<0.0022573364> : tensor<128x128xf32>
    %cst_445 = arith.constant dense<0.00225225231> : tensor<128x128xf32>
    %cst_446 = arith.constant dense<0.00224719103> : tensor<128x128xf32>
    %cst_447 = arith.constant dense<0.00224215258> : tensor<128x512xf32>
    %cst_448 = arith.constant dense<0.00223713648> : tensor<512x128xf32>
    %cst_449 = arith.constant dense<0.00223214296> : tensor<128x512xf32>
    %cst_450 = arith.constant dense<0.00222717156> : tensor<512x128xf32>
    %cst_451 = arith.constant dense<0.00222222228> : tensor<128x512xf32>
    %cst_452 = arith.constant dense<0.00221729488> : tensor<512x128xf32>
    %cst_453 = arith.constant dense<0.00221238937> : tensor<128x512xf32>
    %cst_454 = arith.constant dense<0.00220750552> : tensor<512x128xf32>
    %cst_455 = arith.constant dense<0.00220264308> : tensor<128x512xf32>
    %cst_456 = arith.constant dense<0.0021978023> : tensor<512x128xf32>
    %cst_457 = arith.constant dense<0.00219298247> : tensor<512x128xf32>
    %cst_458 = arith.constant dense<0.00218818383> : tensor<512x128xf32>
    %cst_459 = arith.constant dense<0.00218340615> : tensor<128x128xf32>
    %cst_460 = arith.constant dense<0.00217864919> : tensor<128x128xf32>
    %cst_461 = arith.constant dense<0.00217391294> : tensor<128x128xf32>
    %cst_462 = arith.constant dense<0.00216919743> : tensor<128x512xf32>
    %cst_463 = arith.constant dense<0.00216450216> : tensor<512x128xf32>
    %cst_464 = arith.constant dense<0.00215982716> : tensor<128x512xf32>
    %cst_465 = arith.constant dense<0.00215517241> : tensor<512x128xf32>
    %cst_466 = arith.constant dense<0.00215053768> : tensor<128x512xf32>
    %cst_467 = arith.constant dense<0.00214592274> : tensor<512x128xf32>
    %cst_468 = arith.constant dense<0.0021413276> : tensor<128x512xf32>
    %cst_469 = arith.constant dense<0.00213675224> : tensor<512x128xf32>
    %cst_470 = arith.constant dense<0.00213219621> : tensor<128x512xf32>
    %cst_471 = arith.constant dense<0.00212765951> : tensor<512x128xf32>
    %cst_472 = arith.constant dense<0.00212314236> : tensor<512x128xf32>
    %cst_473 = arith.constant dense<0.00211864407> : tensor<512x128xf32>
    %cst_474 = arith.constant dense<0.00211416488> : tensor<128x128xf32>
    %cst_475 = arith.constant dense<0.00210970454> : tensor<128x128xf32>
    %cst_476 = arith.constant dense<0.00210526306> : tensor<128x128xf32>
    %cst_477 = arith.constant dense<0.00210084044> : tensor<128x512xf32>
    %cst_478 = arith.constant dense<0.00209643599> : tensor<512x128xf32>
    %cst_479 = arith.constant dense<0.00209205016> : tensor<128x512xf32>
    %cst_480 = arith.constant dense<0.00208768272> : tensor<512x128xf32>
    %cst_481 = arith.constant dense<0.00208333344> : tensor<128x512xf32>
    %cst_482 = arith.constant dense<0.00207900209> : tensor<512x128xf32>
    %cst_483 = arith.constant dense<0.00207468891> : tensor<128x512xf32>
    %cst_484 = arith.constant dense<0.00207039341> : tensor<512x128xf32>
    %cst_485 = arith.constant dense<0.00206611562> : tensor<128x512xf32>
    %cst_486 = arith.constant dense<0.00206185575> : tensor<512x128xf32>
    %cst_487 = arith.constant dense<0.00205761311> : tensor<512x128xf32>
    %cst_488 = arith.constant dense<0.00205338816> : tensor<512x128xf32>
    %cst_489 = arith.constant dense<0.00204918021> : tensor<128x128xf32>
    %cst_490 = arith.constant dense<0.00204498973> : tensor<128x128xf32>
    %cst_491 = arith.constant dense<0.00204081624> : tensor<128x128xf32>
    %cst_492 = arith.constant dense<2.036660e-03> : tensor<128x512xf32>
    %cst_493 = arith.constant dense<0.00203252025> : tensor<512x128xf32>
    %cst_494 = arith.constant dense<0.00202839752> : tensor<128x512xf32>
    %cst_495 = arith.constant dense<0.00202429155> : tensor<512x128xf32>
    %cst_496 = arith.constant dense<0.00202020211> : tensor<128x512xf32>
    %cst_497 = arith.constant dense<0.00201612897> : tensor<512x128xf32>
    %cst_498 = arith.constant dense<0.00201207236> : tensor<128x512xf32>
    %cst_499 = arith.constant dense<0.00200803205> : tensor<512x128xf32>
    %cst_500 = arith.constant dense<0.00200400804> : tensor<128x512xf32>
    %cst_501 = arith.constant dense<2.000000e-03> : tensor<512x128xf32>
    %cst_502 = arith.constant dense<0.00199600798> : tensor<512x128xf32>
    %cst_503 = arith.constant dense<0.00199203193> : tensor<512x128xf32>
    %cst_504 = arith.constant dense<0.00198807148> : tensor<128x128xf32>
    %cst_505 = arith.constant dense<0.0019841271> : tensor<128x128xf32>
    %cst_506 = arith.constant dense<0.00198019808> : tensor<128x128xf32>
    %cst_507 = arith.constant dense<0.00197628466> : tensor<128x512xf32>
    %cst_508 = arith.constant dense<0.00197238661> : tensor<512x128xf32>
    %cst_509 = arith.constant dense<0.00196850393> : tensor<128x512xf32>
    %cst_510 = arith.constant dense<0.00196463661> : tensor<512x128xf32>
    %cst_511 = arith.constant dense<0.00196078443> : tensor<128x512xf32>
    %cst_512 = arith.constant dense<0.00195694715> : tensor<512x128xf32>
    %cst_513 = arith.constant dense<0.001953125> : tensor<128x512xf32>
    %cst_514 = arith.constant dense<0.00194931775> : tensor<512x128xf32>
    %cst_515 = arith.constant dense<0.00194552529> : tensor<128x512xf32>
    %cst_516 = arith.constant dense<0.00194174761> : tensor<512x128xf32>
    %cst_517 = arith.constant dense<0.00193798449> : tensor<512x128xf32>
    %cst_518 = arith.constant dense<0.00193423603> : tensor<512x128xf32>
    %cst_519 = arith.constant dense<0.00193050189> : tensor<128x128xf32>
    %cst_520 = arith.constant dense<0.00192678231> : tensor<128x128xf32>
    %cst_521 = arith.constant dense<0.00192307692> : tensor<128x128xf32>
    %cst_522 = arith.constant dense<0.00191938574> : tensor<128x512xf32>
    %cst_523 = arith.constant dense<0.00191570877> : tensor<512x128xf32>
    %cst_524 = arith.constant dense<0.00191204587> : tensor<128x512xf32>
    %cst_525 = arith.constant dense<0.00190839695> : tensor<512x128xf32>
    %cst_526 = arith.constant dense<0.00190476188> : tensor<128x512xf32>
    %cst_527 = arith.constant dense<0.00190114067> : tensor<512x128xf32>
    %cst_528 = arith.constant dense<0.00189753319> : tensor<128x512xf32>
    %cst_529 = arith.constant dense<0.00189393945> : tensor<512x128xf32>
    %cst_530 = arith.constant dense<0.00189035921> : tensor<128x512xf32>
    %cst_531 = arith.constant dense<0.00188679248> : tensor<512x128xf32>
    %cst_532 = arith.constant dense<0.00188323914> : tensor<512x128xf32>
    %cst_533 = arith.constant dense<0.0018796993> : tensor<512x128xf32>
    %cst_534 = arith.constant dense<0.00187617261> : tensor<128x128xf32>
    %cst_535 = arith.constant dense<0.0018726592> : tensor<128x128xf32>
    %cst_536 = arith.constant dense<0.00186915894> : tensor<128x128xf32>
    %cst_537 = arith.constant dense<0.0018656716> : tensor<128x512xf32>
    %cst_538 = arith.constant dense<0.00186219742> : tensor<512x128xf32>
    %cst_539 = arith.constant dense<0.00185873604> : tensor<128x512xf32>
    %cst_540 = arith.constant dense<0.00185528758> : tensor<512x128xf32>
    %cst_541 = arith.constant dense<0.00185185182> : tensor<128x512xf32>
    %cst_542 = arith.constant dense<0.00184842886> : tensor<512x128xf32>
    %cst_543 = arith.constant dense<0.00184501847> : tensor<128x512xf32>
    %cst_544 = arith.constant dense<0.00184162066> : tensor<512x128xf32>
    %cst_545 = arith.constant dense<0.0018382353> : tensor<128x512xf32>
    %cst_546 = arith.constant dense<0.0018348624> : tensor<512x128xf32>
    %cst_547 = arith.constant dense<0.00183150184> : tensor<512x128xf32>
    %cst_548 = arith.constant dense<0.00182815362> : tensor<512x128xf32>
    %cst_549 = arith.constant dense<0.0018248175> : tensor<128x128xf32>
    %cst_550 = arith.constant dense<0.00182149361> : tensor<128x128xf32>
    %cst_551 = arith.constant dense<0.00181818183> : tensor<128x128xf32>
    %cst_552 = arith.constant dense<0.00181488204> : tensor<128x512xf32>
    %cst_553 = arith.constant dense<0.00181159424> : tensor<512x128xf32>
    %cst_554 = arith.constant dense<0.00180831831> : tensor<128x512xf32>
    %cst_555 = arith.constant dense<0.00180505414> : tensor<512x128xf32>
    %cst_556 = arith.constant dense<0.00180180185> : tensor<128x512xf32>
    %cst_557 = arith.constant dense<0.00179856119> : tensor<512x128xf32>
    %cst_558 = arith.constant dense<0.00179533218> : tensor<128x512xf32>
    %cst_559 = arith.constant dense<0.00179211469> : tensor<512x128xf32>
    %cst_560 = arith.constant dense<0.00178890873> : tensor<128x512xf32>
    %cst_561 = arith.constant dense<0.0017857143> : tensor<512x128xf32>
    %cst_562 = arith.constant dense<0.00178253115> : tensor<512x128xf32>
    %cst_563 = arith.constant dense<0.00177935942> : tensor<512x128xf32>
    %cst_564 = arith.constant dense<0.00177619897> : tensor<128x128xf32>
    %cst_565 = arith.constant dense<0.00177304959> : tensor<128x128xf32>
    %cst_566 = arith.constant dense<0.0017699115> : tensor<128x128xf32>
    %cst_567 = arith.constant dense<0.00176678447> : tensor<128x512xf32>
    %cst_568 = arith.constant dense<0.00176366838> : tensor<512x128xf32>
    %cst_569 = arith.constant dense<0.00176056335> : tensor<128x512xf32>
    %cst_570 = arith.constant dense<0.00175746926> : tensor<512x128xf32>
    %cst_571 = arith.constant dense<0.001754386> : tensor<128x512xf32>
    %cst_572 = arith.constant dense<0.00175131345> : tensor<512x128xf32>
    %cst_573 = arith.constant dense<0.00174825173> : tensor<128x512xf32>
    %cst_574 = arith.constant dense<0.00174520072> : tensor<512x128xf32>
    %cst_575 = arith.constant dense<0.0017421603> : tensor<128x512xf32>
    %cst_576 = arith.constant dense<0.00173913047> : tensor<512x128xf32>
    %cst_577 = arith.constant dense<0.00173611112> : tensor<512x128xf32>
    %cst_578 = arith.constant dense<0.00173310225> : tensor<512x128xf32>
    %cst_579 = arith.constant dense<0.00173010386> : tensor<128x128xf32>
    %cst_580 = arith.constant dense<0.00172711571> : tensor<128x128xf32>
    %cst_581 = arith.constant dense<0.00172413792> : tensor<128x128xf32>
    %cst_582 = arith.constant dense<0.00172117038> : tensor<128x512xf32>
    %cst_583 = arith.constant dense<0.00171821308> : tensor<512x128xf32>
    %cst_584 = arith.constant dense<0.00171526591> : tensor<128x512xf32>
    %cst_585 = arith.constant dense<0.00171232875> : tensor<512x128xf32>
    %cst_586 = arith.constant dense<0.00170940172> : tensor<128x512xf32>
    %cst_587 = arith.constant dense<0.00170648459> : tensor<512x128xf32>
    %cst_588 = arith.constant dense<0.00170357747> : tensor<128x512xf32>
    %cst_589 = arith.constant dense<0.00170068024> : tensor<512x128xf32>
    %cst_590 = arith.constant dense<0.0016977929> : tensor<128x512xf32>
    %cst_591 = arith.constant dense<0.00169491523> : tensor<512x128xf32>
    %cst_592 = arith.constant dense<0.00169204734> : tensor<512x128xf32>
    %cst_593 = arith.constant dense<0.00168918923> : tensor<512x128xf32>
    %cst_594 = arith.constant dense<0.00168634066> : tensor<128x128xf32>
    %cst_595 = arith.constant dense<0.00168350164> : tensor<128x128xf32>
    %cst_596 = arith.constant dense<0.00168067229> : tensor<128x128xf32>
    %cst_597 = arith.constant dense<0.00167785236> : tensor<128x512xf32>
    %cst_598 = arith.constant dense<0.00167504186> : tensor<512x128xf32>
    %cst_599 = arith.constant dense<0.00167224079> : tensor<128x512xf32>
    %cst_600 = arith.constant dense<0.00166944903> : tensor<512x128xf32>
    %cst_601 = arith.constant dense<0.00166666671> : tensor<128x512xf32>
    %cst_602 = arith.constant dense<0.00166389346> : tensor<512x128xf32>
    %cst_603 = arith.constant dense<0.00166112953> : tensor<128x512xf32>
    %cst_604 = arith.constant dense<0.00165837479> : tensor<512x128xf32>
    %cst_605 = arith.constant dense<0.00165562914> : tensor<128x512xf32>
    %cst_606 = arith.constant dense<0.00165289256> : tensor<512x2xf32>
    %c1 = arith.constant 1 : index
    %c0 = arith.constant 0 : index
    %cst_607 = arith.constant 0.000000e+00 : f32
    %cst_608 = arith.constant dense<0.00165016507> : tensor<1x30522x128xf32>
    %cst_609 = arith.constant dense<0.00164744642> : tensor<1x2x512xf32>
    %cst_610 = arith.constant dense<0.00164473685> : tensor<32xf32>
    %cst_611 = arith.constant dense<0.00164203614> : tensor<384xf32>
    %cst_612 = arith.constant dense<0.00163934426> : tensor<128xf32>
    %cst_613 = arith.constant dense<0.00163666124> : tensor<512xf32>
    %cst_614 = arith.constant dense<0.00163398695> : tensor<1x384x512xf32>
    %cst_615 = arith.constant dense<0.00163132139> : tensor<128xf32>
    %cst_616 = arith.constant dense<0.00162866444> : tensor<128xf32>
    %cst_617 = arith.constant dense<0.00162601622> : tensor<128xf32>
    %cst_618 = arith.constant dense<0.00162337662> : tensor<128xf32>
    %cst_619 = arith.constant dense<0.00162074552> : tensor<128xf32>
    %cst_620 = arith.constant dense<0.00161812303> : tensor<512xf32>
    %cst_621 = arith.constant dense<0.00161550893> : tensor<128xf32>
    %cst_622 = arith.constant dense<0.0016129032> : tensor<512xf32>
    %cst_623 = arith.constant dense<0.00161030598> : tensor<128xf32>
    %cst_624 = arith.constant dense<0.00160771701> : tensor<512xf32>
    %cst_625 = arith.constant dense<0.00160513644> : tensor<128xf32>
    %cst_626 = arith.constant dense<0.00160256412> : tensor<512xf32>
    %cst_627 = arith.constant dense<1.600000e-03> : tensor<128xf32>
    %cst_628 = arith.constant dense<0.00159744406> : tensor<512xf32>
    %cst_629 = arith.constant dense<0.00159489631> : tensor<128xf32>
    %cst_630 = arith.constant dense<0.00159235671> : tensor<128xf32>
    %cst_631 = arith.constant dense<0.00158982514> : tensor<128xf32>
    %cst_632 = arith.constant dense<0.00158730161> : tensor<128xf32>
    %cst_633 = arith.constant dense<0.00158478611> : tensor<128xf32>
    %cst_634 = arith.constant dense<0.00158227852> : tensor<512xf32>
    %cst_635 = arith.constant dense<0.00157977885> : tensor<128xf32>
    %cst_636 = arith.constant dense<0.0015772871> : tensor<512xf32>
    %cst_637 = arith.constant dense<0.00157480314> : tensor<128xf32>
    %cst_638 = arith.constant dense<0.00157232699> : tensor<512xf32>
    %cst_639 = arith.constant dense<0.00156985875> : tensor<128xf32>
    %cst_640 = arith.constant dense<0.00156739808> : tensor<512xf32>
    %cst_641 = arith.constant dense<0.00156494521> : tensor<128xf32>
    %cst_642 = arith.constant dense<1.562500e-03> : tensor<512xf32>
    %cst_643 = arith.constant dense<0.0015600624> : tensor<128xf32>
    %cst_644 = arith.constant dense<0.00155763235> : tensor<128xf32>
    %cst_645 = arith.constant dense<1.555210e-03> : tensor<128xf32>
    %cst_646 = arith.constant dense<0.00155279506> : tensor<128xf32>
    %cst_647 = arith.constant dense<0.00155038759> : tensor<128xf32>
    %cst_648 = arith.constant dense<0.00154798757> : tensor<512xf32>
    %cst_649 = arith.constant dense<0.00154559501> : tensor<128xf32>
    %cst_650 = arith.constant dense<0.00154320989> : tensor<512xf32>
    %cst_651 = arith.constant dense<0.00154083211> : tensor<128xf32>
    %cst_652 = arith.constant dense<0.00153846154> : tensor<512xf32>
    %cst_653 = arith.constant dense<0.00153609831> : tensor<128xf32>
    %cst_654 = arith.constant dense<0.0015337423> : tensor<512xf32>
    %cst_655 = arith.constant dense<0.00153139362> : tensor<128xf32>
    %cst_656 = arith.constant dense<0.00152905204> : tensor<512xf32>
    %cst_657 = arith.constant dense<0.00152671756> : tensor<128xf32>
    %cst_658 = arith.constant dense<0.00152439019> : tensor<128xf32>
    %cst_659 = arith.constant dense<1.522070e-03> : tensor<128xf32>
    %cst_660 = arith.constant dense<0.00151975686> : tensor<128xf32>
    %cst_661 = arith.constant dense<0.00151745067> : tensor<128xf32>
    %cst_662 = arith.constant dense<0.00151515147> : tensor<512xf32>
    %cst_663 = arith.constant dense<0.00151285925> : tensor<128xf32>
    %cst_664 = arith.constant dense<0.00151057402> : tensor<512xf32>
    %cst_665 = arith.constant dense<0.00150829565> : tensor<128xf32>
    %cst_666 = arith.constant dense<0.00150602404> : tensor<512xf32>
    %cst_667 = arith.constant dense<0.00150375941> : tensor<128xf32>
    %cst_668 = arith.constant dense<0.00150150154> : tensor<512xf32>
    %cst_669 = arith.constant dense<0.00149925041> : tensor<128xf32>
    %cst_670 = arith.constant dense<0.00149700604> : tensor<512xf32>
    %cst_671 = arith.constant dense<0.00149476831> : tensor<128xf32>
    %cst_672 = arith.constant dense<0.00149253733> : tensor<128xf32>
    %cst_673 = arith.constant dense<0.00149031298> : tensor<128xf32>
    %cst_674 = arith.constant dense<0.00148809527> : tensor<128xf32>
    %cst_675 = arith.constant dense<0.00148588407> : tensor<128xf32>
    %cst_676 = arith.constant dense<0.00148367952> : tensor<512xf32>
    %cst_677 = arith.constant dense<0.00148148148> : tensor<128xf32>
    %cst_678 = arith.constant dense<1.479290e-03> : tensor<512xf32>
    %cst_679 = arith.constant dense<0.00147710484> : tensor<128xf32>
    %cst_680 = arith.constant dense<0.00147492625> : tensor<512xf32>
    %cst_681 = arith.constant dense<0.00147275405> : tensor<128xf32>
    %cst_682 = arith.constant dense<0.00147058826> : tensor<512xf32>
    %cst_683 = arith.constant dense<0.00146842876> : tensor<128xf32>
    %cst_684 = arith.constant dense<0.00146627566> : tensor<512xf32>
    %cst_685 = arith.constant dense<0.00146412884> : tensor<128xf32>
    %cst_686 = arith.constant dense<0.00146198831> : tensor<128xf32>
    %cst_687 = arith.constant dense<0.00145985396> : tensor<128xf32>
    %cst_688 = arith.constant dense<0.001457726> : tensor<128xf32>
    %cst_689 = arith.constant dense<0.0014556041> : tensor<128xf32>
    %cst_690 = arith.constant dense<0.00145348837> : tensor<512xf32>
    %cst_691 = arith.constant dense<0.0014513788> : tensor<128xf32>
    %cst_692 = arith.constant dense<0.00144927541> : tensor<512xf32>
    %cst_693 = arith.constant dense<0.00144717796> : tensor<128xf32>
    %cst_694 = arith.constant dense<0.00144508667> : tensor<512xf32>
    %cst_695 = arith.constant dense<0.00144300144> : tensor<128xf32>
    %cst_696 = arith.constant dense<0.00144092215> : tensor<512xf32>
    %cst_697 = arith.constant dense<0.00143884891> : tensor<128xf32>
    %cst_698 = arith.constant dense<0.0014367816> : tensor<512xf32>
    %cst_699 = arith.constant dense<0.00143472024> : tensor<128xf32>
    %cst_700 = arith.constant dense<0.00143266481> : tensor<128xf32>
    %cst_701 = arith.constant dense<0.0014306152> : tensor<128xf32>
    %cst_702 = arith.constant dense<0.00142857141> : tensor<128xf32>
    %cst_703 = arith.constant dense<0.00142653356> : tensor<128xf32>
    %cst_704 = arith.constant dense<0.00142450142> : tensor<512xf32>
    %cst_705 = arith.constant dense<0.00142247509> : tensor<128xf32>
    %cst_706 = arith.constant dense<0.00142045459> : tensor<512xf32>
    %cst_707 = arith.constant dense<0.00141843967> : tensor<128xf32>
    %cst_708 = arith.constant dense<0.00141643058> : tensor<512xf32>
    %cst_709 = arith.constant dense<0.00141442718> : tensor<128xf32>
    %cst_710 = arith.constant dense<0.00141242938> : tensor<512xf32>
    %cst_711 = arith.constant dense<0.00141043728> : tensor<128xf32>
    %cst_712 = arith.constant dense<0.00140845065> : tensor<512xf32>
    %cst_713 = arith.constant dense<0.00140646973> : tensor<128xf32>
    %cst_714 = arith.constant dense<0.0014044944> : tensor<128xf32>
    %cst_715 = arith.constant dense<0.00140252453> : tensor<128xf32>
    %cst_716 = arith.constant dense<0.00140056026> : tensor<128xf32>
    %cst_717 = arith.constant dense<0.00139860145> : tensor<128xf32>
    %cst_718 = arith.constant dense<0.001396648> : tensor<512xf32>
    %cst_719 = arith.constant dense<0.00139470014> : tensor<128xf32>
    %cst_720 = arith.constant dense<0.00139275764> : tensor<512xf32>
    %cst_721 = arith.constant dense<0.0013908206> : tensor<128xf32>
    %cst_722 = arith.constant dense<0.00138888892> : tensor<512xf32>
    %cst_723 = arith.constant dense<0.0013869626> : tensor<128xf32>
    %cst_724 = arith.constant dense<0.00138504151> : tensor<512xf32>
    %cst_725 = arith.constant dense<0.0013831259> : tensor<128xf32>
    %cst_726 = arith.constant dense<0.00138121552> : tensor<512xf32>
    %cst_727 = arith.constant dense<0.00137931039> : tensor<128xf32>
    %cst_728 = arith.constant dense<0.00137741049> : tensor<128xf32>
    %cst_729 = arith.constant dense<0.00137551583> : tensor<128xf32>
    %cst_730 = arith.constant dense<0.00137362641> : tensor<128xf32>
    %cst_731 = arith.constant dense<0.00137174211> : tensor<128xf32>
    %cst_732 = arith.constant dense<0.00136986305> : tensor<512xf32>
    %cst_733 = arith.constant dense<0.00136798911> : tensor<128xf32>
    %cst_734 = arith.constant dense<0.00136612018> : tensor<512xf32>
    %cst_735 = arith.constant dense<0.00136425649> : tensor<128xf32>
    %cst_736 = arith.constant dense<0.0013623978> : tensor<512xf32>
    %cst_737 = arith.constant dense<0.00136054424> : tensor<128xf32>
    %cst_738 = arith.constant dense<0.00135869568> : tensor<512xf32>
    %cst_739 = arith.constant dense<0.00135685212> : tensor<128xf32>
    %cst_740 = arith.constant dense<0.00135501358> : tensor<512xf32>
    %cst_741 = arith.constant dense<0.00135317992> : tensor<128xf32>
    %cst_742 = arith.constant dense<0.00135135138> : tensor<128xf32>
    %cst_743 = arith.constant dense<0.00134952762> : tensor<128xf32>
    %cst_744 = arith.constant dense<0.00134770887> : tensor<128xf32>
    %cst_745 = arith.constant dense<0.001345895> : tensor<128xf32>
    %cst_746 = arith.constant dense<0.00134408602> : tensor<512xf32>
    %cst_747 = arith.constant dense<0.00134228193> : tensor<128xf32>
    %cst_748 = arith.constant dense<0.00134048262> : tensor<512xf32>
    %cst_749 = arith.constant dense<0.00133868807> : tensor<128xf32>
    %cst_750 = arith.constant dense<0.00133689842> : tensor<512xf32>
    %cst_751 = arith.constant dense<0.00133511354> : tensor<128xf32>
    %cst_752 = arith.constant dense<0.00133333332> : tensor<512xf32>
    %cst_753 = arith.constant dense<0.00133155787> : tensor<128xf32>
    %cst_754 = arith.constant dense<0.00132978719> : tensor<512xf32>
    %cst_755 = arith.constant dense<0.00132802129> : tensor<128xf32>
    %cst_756 = arith.constant dense<0.00132625992> : tensor<128xf32>
    %cst_757 = arith.constant dense<0.00132450333> : tensor<128xf32>
    %cst_758 = arith.constant dense<0.00132275128> : tensor<128xf32>
    %cst_759 = arith.constant dense<0.00132100401> : tensor<128xf32>
    %cst_760 = arith.constant dense<0.00131926127> : tensor<512xf32>
    %cst_761 = arith.constant dense<0.00131752307> : tensor<128xf32>
    %cst_762 = arith.constant dense<0.00131578953> : tensor<512xf32>
    %cst_763 = arith.constant dense<0.00131406041> : tensor<128xf32>
    %cst_764 = arith.constant dense<0.00131233595> : tensor<512xf32>
    %cst_765 = arith.constant dense<0.00131061603> : tensor<128xf32>
    %cst_766 = arith.constant dense<0.00130890054> : tensor<512xf32>
    %cst_767 = arith.constant dense<0.00130718958> : tensor<128xf32>
    %cst_768 = arith.constant dense<0.00130548305> : tensor<512xf32>
    %cst_769 = arith.constant dense<0.00130378094> : tensor<128xf32>
    %cst_770 = arith.constant dense<0.00130208337> : tensor<128xf32>
    %cst_771 = arith.constant dense<0.00130039011> : tensor<128xf32>
    %cst_772 = arith.constant dense<0.00129870127> : tensor<128xf32>
    %cst_773 = arith.constant dense<0.00129701686> : tensor<128xf32>
    %cst_774 = arith.constant dense<0.00129533675> : tensor<512xf32>
    %cst_775 = arith.constant dense<0.00129366107> : tensor<128xf32>
    %cst_776 = arith.constant dense<0.0012919897> : tensor<512xf32>
    %cst_777 = arith.constant dense<0.00129032263> : tensor<128xf32>
    %cst_778 = arith.constant dense<0.00128865975> : tensor<512xf32>
    %cst_779 = arith.constant dense<0.0012870013> : tensor<128xf32>
    %cst_780 = arith.constant dense<0.00128534704> : tensor<512xf32>
    %cst_781 = arith.constant dense<0.00128369709> : tensor<128xf32>
    %cst_782 = arith.constant dense<0.00128205132> : tensor<512xf32>
    %cst_783 = arith.constant dense<0.00128040975> : tensor<128xf32>
    %cst_784 = arith.constant dense<0.00127877237> : tensor<128xf32>
    %cst_785 = arith.constant dense<0.00127713918> : tensor<128xf32>
    %cst_786 = arith.constant dense<0.00127551018> : tensor<128xf32>
    %cst_787 = arith.constant dense<0.00127388537> : tensor<128xf32>
    %cst_788 = arith.constant dense<0.00127226464> : tensor<512xf32>
    %cst_789 = arith.constant dense<0.00127064798> : tensor<128xf32>
    %cst_790 = arith.constant dense<0.00126903551> : tensor<512xf32>
    %cst_791 = arith.constant dense<0.00126742711> : tensor<128xf32>
    %cst_792 = arith.constant dense<0.00126582279> : tensor<512xf32>
    %cst_793 = arith.constant dense<0.00126422255> : tensor<128xf32>
    %cst_794 = arith.constant dense<0.00126262626> : tensor<512xf32>
    %cst_795 = arith.constant dense<0.00126103405> : tensor<128xf32>
    %cst_796 = arith.constant dense<0.00125944579> : tensor<512xf32>
    %cst_797 = arith.constant dense<0.00125786162> : tensor<128xf32>
    %cst_798 = arith.constant dense<0.00125628139> : tensor<128xf32>
    %cst_799 = arith.constant dense<0.00125470513> : tensor<128xf32>
    %cst_800 = arith.constant dense<0.00125313282> : tensor<128xf32>
    %cst_801 = arith.constant dense<0.00125156448> : tensor<128xf32>
    %cst_802 = arith.constant dense<1.250000e-03> : tensor<512xf32>
    %cst_803 = arith.constant dense<0.00124843942> : tensor<128xf32>
    %cst_804 = arith.constant dense<0.00124688284> : tensor<512xf32>
    %cst_805 = arith.constant dense<1.245330e-03> : tensor<128xf32>
    %cst_806 = arith.constant dense<0.00124378107> : tensor<512xf32>
    %cst_807 = arith.constant dense<0.001242236> : tensor<128xf32>
    %cst_808 = arith.constant dense<0.00124069478> : tensor<512xf32>
    %cst_809 = arith.constant dense<0.0012391574> : tensor<128xf32>
    %cst_810 = arith.constant dense<0.00123762374> : tensor<512xf32>
    %cst_811 = arith.constant dense<0.00123609393> : tensor<128xf32>
    %cst_812 = arith.constant dense<0.00123456796> : tensor<128xf32>
    %cst_813 = arith.constant dense<0.00123304559> : tensor<128xf32>
    %cst_814 = arith.constant dense<0.00123152707> : tensor<128xf32>
    %cst_815 = arith.constant dense<0.00123001228> : tensor<128xf32>
    %cst_816 = arith.constant dense<0.00122850121> : tensor<512xf32>
    %cst_817 = arith.constant dense<0.00122699386> : tensor<128xf32>
    %cst_818 = arith.constant dense<0.00122549024> : tensor<512xf32>
    %cst_819 = arith.constant dense<0.00122399023> : tensor<128xf32>
    %cst_820 = arith.constant dense<0.00122249394> : tensor<512xf32>
    %cst_821 = arith.constant dense<0.00122100126> : tensor<128xf32>
    %cst_822 = arith.constant dense<0.0012195122> : tensor<512xf32>
    %cst_823 = arith.constant dense<0.00121802685> : tensor<128xf32>
    %cst_824 = arith.constant dense<0.001216545> : tensor<512xf32>
    %cst_825 = arith.constant dense<0.00121506688> : tensor<128xf32>
    %cst_826 = arith.constant dense<0.00121359224> : tensor<128xf32>
    %cst_827 = arith.constant dense<0.00121212122> : tensor<128xf32>
    %cst_828 = arith.constant dense<0.00121065381> : tensor<128xf32>
    %cst_829 = arith.constant dense<0.00120918988> : tensor<128xf32>
    %cst_830 = arith.constant dense<0.00120772945> : tensor<512xf32>
    %cst_831 = arith.constant dense<0.00120627263> : tensor<128xf32>
    %cst_832 = arith.constant dense<0.0012048193> : tensor<512xf32>
    %cst_833 = arith.constant dense<0.00120336947> : tensor<128xf32>
    %cst_834 = arith.constant dense<0.00120192312> : tensor<512xf32>
    %cst_835 = arith.constant dense<0.00120048015> : tensor<128xf32>
    %cst_836 = arith.constant dense<0.00119904079> : tensor<512xf32>
    %cst_837 = arith.constant dense<0.00119760481> : tensor<128xf32>
    %cst_838 = arith.constant dense<0.0011961722> : tensor<512xf32>
    %cst_839 = arith.constant dense<0.00119474309> : tensor<128xf32>
    %cst_840 = arith.constant dense<0.00119331747> : tensor<128xf32>
    %cst_841 = arith.constant dense<0.00119189511> : tensor<128xf32>
    %cst_842 = arith.constant dense<0.00119047624> : tensor<128xf32>
    %cst_843 = arith.constant dense<0.00118906063> : tensor<128xf32>
    %cst_844 = arith.constant dense<0.00118764851> : tensor<512xf32>
    %cst_845 = arith.constant dense<0.00118623965> : tensor<128xf32>
    %cst_846 = arith.constant dense<0.00118483417> : tensor<512xf32>
    %cst_847 = arith.constant dense<0.00118343194> : tensor<128xf32>
    %cst_848 = arith.constant dense<0.0011820331> : tensor<512xf32>
    %cst_849 = arith.constant dense<0.00118063751> : tensor<128xf32>
    %cst_850 = arith.constant dense<0.0011792453> : tensor<512xf32>
    %cst_851 = arith.constant dense<0.00117785635> : tensor<128xf32>
    %cst_852 = arith.constant dense<0.00117647054> : tensor<512xf32>
    %cst_853 = arith.constant dense<0.00117508811> : tensor<128xf32>
    %cst_854 = arith.constant dense<0.00117370894> : tensor<128xf32>
    %cst_855 = arith.constant dense<0.00117233291> : tensor<128xf32>
    %cst_856 = arith.constant dense<0.00117096014> : tensor<128xf32>
    %cst_857 = arith.constant dense<0.00116959063> : tensor<128xf32>
    %cst_858 = arith.constant dense<0.00116822426> : tensor<512xf32>
    %cst_859 = arith.constant dense<0.00116686116> : tensor<128xf32>
    %cst_860 = arith.constant dense<0.00116550119> : tensor<512xf32>
    %cst_861 = arith.constant dense<0.00116414437> : tensor<128xf32>
    %cst_862 = arith.constant dense<0.00116279069> : tensor<512xf32>
    %cst_863 = arith.constant dense<0.00116144016> : tensor<128xf32>
    %cst_864 = arith.constant dense<0.00116009277> : tensor<512xf32>
    %cst_865 = arith.constant dense<0.00115874852> : tensor<128xf32>
    %cst_866 = arith.constant dense<0.00115740742> : tensor<512xf32>
    %cst_867 = arith.constant dense<0.00115606934> : tensor<128xf32>
    %cst_868 = arith.constant dense<0.0011547344> : tensor<128xf32>
    %cst_869 = arith.constant dense<0.0011534025> : tensor<128xf32>
    %cst_870 = arith.constant dense<0.00115207373> : tensor<128xf32>
    %cst_871 = arith.constant dense<0.00115074799> : tensor<128xf32>
    %cst_872 = arith.constant dense<0.00114942528> : tensor<512xf32>
    %cst_873 = arith.constant dense<0.0011481056> : tensor<128xf32>
    %cst_874 = arith.constant dense<0.00114678894> : tensor<512xf32>
    %cst_875 = arith.constant dense<0.00114547543> : tensor<128xf32>
    %cst_876 = arith.constant dense<0.00114416471> : tensor<512xf32>
    %cst_877 = arith.constant dense<0.00114285713> : tensor<128xf32>
    %cst_878 = arith.constant dense<0.00114155246> : tensor<512xf32>
    %cst_879 = arith.constant dense<0.00114025082> : tensor<128xf32>
    %cst_880 = arith.constant dense<0.00113895221> : tensor<512xf32>
    %cst_881 = arith.constant dense<0.00113765639> : tensor<128xf32>
    %cst_882 = arith.constant dense<0.0011363636> : tensor<128xf32>
    %cst_883 = arith.constant dense<0.00113507384> : tensor<128xf32>
    %cst_884 = arith.constant dense<0.00113378686> : tensor<128xf32>
    %cst_885 = arith.constant dense<0.0011325028> : tensor<128xf32>
    %cst_886 = arith.constant dense<0.00113122177> : tensor<512xf32>
    %cst_887 = arith.constant dense<0.00112994353> : tensor<128xf32>
    %cst_888 = arith.constant dense<0.0011286682> : tensor<512xf32>
    %cst_889 = arith.constant dense<0.00112739566> : tensor<128xf32>
    %cst_890 = arith.constant dense<0.00112612615> : tensor<512xf32>
    %cst_891 = arith.constant dense<0.00112485944> : tensor<128xf32>
    %cst_892 = arith.constant dense<0.00112359552> : tensor<512xf32>
    %cst_893 = arith.constant dense<0.00112233451> : tensor<128xf32>
    %cst_894 = arith.constant dense<0.00112107629> : tensor<512xf32>
    %cst_895 = arith.constant dense<0.00111982087> : tensor<128xf32>
    %cst_896 = arith.constant dense<0.00111856824> : tensor<128xf32>
    %cst_897 = arith.constant dense<0.0011173184> : tensor<128xf32>
    %cst_898 = arith.constant dense<0.00111607148> : tensor<128xf32>
    %cst_899 = arith.constant dense<0.00111482723> : tensor<128xf32>
    %cst_900 = arith.constant dense<0.00111358578> : tensor<512xf32>
    %cst_901 = arith.constant dense<0.001112347> : tensor<128xf32>
    %cst_902 = arith.constant dense<0.00111111114> : tensor<512xf32>
    %cst_903 = arith.constant dense<0.00110987795> : tensor<128xf32>
    %cst_904 = arith.constant dense<0.00110864744> : tensor<512xf32>
    %cst_905 = arith.constant dense<0.00110741972> : tensor<128xf32>
    %cst_906 = arith.constant dense<0.00110619469> : tensor<512xf32>
    %cst_907 = arith.constant dense<0.00110497233> : tensor<128xf32>
    %cst_908 = arith.constant dense<0.00110375276> : tensor<512xf32>
    %cst_909 = arith.constant dense<0.00110253587> : tensor<128xf32>
    %cst_910 = arith.constant dense<0.00110132154> : tensor<128xf32>
    %cst_911 = arith.constant dense<1.100110e-03> : tensor<128xf32>
    %cst_912 = arith.constant dense<0.00109890115> : tensor<128xf32>
    %cst_913 = arith.constant dense<0.00109769485> : tensor<128xf32>
    %cst_914 = arith.constant dense<0.00109649124> : tensor<512xf32>
    %cst_915 = arith.constant dense<0.0010952903> : tensor<128xf32>
    %cst_916 = arith.constant dense<0.00109409192> : tensor<512xf32>
    %cst_917 = arith.constant dense<0.00109289621> : tensor<128xf32>
    %cst_918 = arith.constant dense<0.00109170307> : tensor<512xf32>
    %cst_919 = arith.constant dense<0.00109051249> : tensor<128xf32>
    %cst_920 = arith.constant dense<0.00108932459> : tensor<512xf32>
    %cst_921 = arith.constant dense<0.00108813925> : tensor<128xf32>
    %cst_922 = arith.constant dense<0.00108695647> : tensor<512xf32>
    %cst_923 = arith.constant dense<0.00108577637> : tensor<128xf32>
    %cst_924 = arith.constant dense<0.00108459871> : tensor<128xf32>
    %cst_925 = arith.constant dense<0.00108342362> : tensor<128xf32>
    %cst_926 = arith.constant dense<0.00108225108> : tensor<128xf32>
    %cst_927 = arith.constant dense<0.00108108111> : tensor<128xf32>
    %cst_928 = arith.constant dense<0.00107991358> : tensor<512xf32>
    %cst_929 = arith.constant dense<0.00107874861> : tensor<128xf32>
    %cst_930 = arith.constant dense<0.0010775862> : tensor<512xf32>
    %cst_931 = arith.constant dense<0.00107642624> : tensor<128xf32>
    %cst_932 = arith.constant dense<0.00107526884> : tensor<512xf32>
    %cst_933 = arith.constant dense<0.00107411388> : tensor<128xf32>
    %cst_934 = arith.constant dense<0.00107296137> : tensor<512xf32>
    %cst_935 = arith.constant dense<0.0010718113> : tensor<128xf32>
    %cst_936 = arith.constant dense<0.0010706638> : tensor<512xf32>
    %cst_937 = arith.constant dense<0.00106951874> : tensor<128xf32>
    %cst_938 = arith.constant dense<0.00106837612> : tensor<128xf32>
    %cst_939 = arith.constant dense<0.00106723583> : tensor<128xf32>
    %cst_940 = arith.constant dense<0.00106609811> : tensor<128xf32>
    %cst_941 = arith.constant dense<0.00106496271> : tensor<128xf32>
    %cst_942 = arith.constant dense<0.00106382975> : tensor<512xf32>
    %cst_943 = arith.constant dense<0.00106269924> : tensor<128xf32>
    %cst_944 = arith.constant dense<0.00106157118> : tensor<512xf32>
    %cst_945 = arith.constant dense<0.00106044544> : tensor<128xf32>
    %cst_946 = arith.constant dense<0.00105932204> : tensor<512xf32>
    %cst_947 = arith.constant dense<0.00105820107> : tensor<128xf32>
    %cst_948 = arith.constant dense<0.00105708244> : tensor<512xf32>
    %cst_949 = arith.constant dense<0.00105596625> : tensor<128xf32>
    %cst_950 = arith.constant dense<0.00105485227> : tensor<512xf32>
    %cst_951 = arith.constant dense<0.00105374074> : tensor<2xf32>
    %0 = tensor.empty() : tensor<1x384xf32>
    %1 = linalg.generic {indexing_maps = [#map, #map], iterator_types = ["parallel", "parallel"]} ins(%arg1 : tensor<1x384xi32>) outs(%0 : tensor<1x384xf32>) {
    ^bb0(%in: i32, %out: f32):
      %4421 = arith.sitofp %in : i32 to f32
      linalg.yield %4421 : f32
    } -> tensor<1x384xf32>
    %2 = tensor.empty() : tensor<1x384x384xf32>
    %3 = linalg.generic {indexing_maps = [#map1, #map2, #map3], iterator_types = ["parallel", "parallel", "parallel"]} ins(%1, %cst_244 : tensor<1x384xf32>, tensor<1x384xf32>) outs(%2 : tensor<1x384x384xf32>) {
    ^bb0(%in: f32, %in_2787: f32, %out: f32):
      %4421 = arith.mulf %in, %in_2787 : f32
      linalg.yield %4421 : f32
    } -> tensor<1x384x384xf32>
    %expanded = tensor.expand_shape %3 [[0, 1], [2], [3]] : tensor<1x384x384xf32> into tensor<1x1x384x384xf32>
    %4 = tensor.empty() : tensor<1x1x384x384xf32>
    %5 = linalg.generic {indexing_maps = [#map4, #map5, #map5], iterator_types = ["parallel", "parallel", "parallel", "parallel"]} ins(%cst_243, %expanded : tensor<1x1xf32>, tensor<1x1x384x384xf32>) outs(%4 : tensor<1x1x384x384xf32>) {
    ^bb0(%in: f32, %in_2787: f32, %out: f32):
      %4421 = arith.subf %in, %in_2787 : f32
      linalg.yield %4421 : f32
    } -> tensor<1x1x384x384xf32>
    %6 = tensor.empty() : tensor<1x1x384x384xf32>
    %7 = linalg.generic {indexing_maps = [#map5, #map4, #map5], iterator_types = ["parallel", "parallel", "parallel", "parallel"]} ins(%5, %cst_242 : tensor<1x1x384x384xf32>, tensor<1x1xf32>) outs(%6 : tensor<1x1x384x384xf32>) {
    ^bb0(%in: f32, %in_2787: f32, %out: f32):
      %4421 = arith.mulf %in, %in_2787 : f32
      linalg.yield %4421 : f32
    } -> tensor<1x1x384x384xf32>
    %8 = tensor.empty() : tensor<1x384x512xf32>
    %9 = linalg.generic {indexing_maps = [#map2, #map3], iterator_types = ["parallel", "parallel", "parallel"]} ins(%arg2 : tensor<1x384xi32>) outs(%8 : tensor<1x384x512xf32>) {
    ^bb0(%in: i32, %out: f32):
      %4421 = linalg.index 0 : index
      %4422 = arith.index_cast %in : i32 to index
      %4423 = linalg.index 2 : index
      %extracted = tensor.extract %cst_609[%4421, %4422, %4423] : tensor<1x2x512xf32>
      linalg.yield %extracted : f32
    } -> tensor<1x384x512xf32>
    %10 = tensor.empty() : tensor<1x384x128xf32>
    %11 = linalg.generic {indexing_maps = [#map2, #map3], iterator_types = ["parallel", "parallel", "parallel"]} ins(%arg0 : tensor<1x384xi32>) outs(%10 : tensor<1x384x128xf32>) {
    ^bb0(%in: i32, %out: f32):
      %4421 = linalg.index 0 : index
      %4422 = arith.index_cast %in : i32 to index
      %4423 = linalg.index 2 : index
      %extracted = tensor.extract %cst_608[%4421, %4422, %4423] : tensor<1x30522x128xf32>
      linalg.yield %extracted : f32
    } -> tensor<1x384x128xf32>
    %extracted_slice = tensor.extract_slice %11[0, 1, 0] [1, 383, 128] [1, 1, 1] : tensor<1x384x128xf32> to tensor<1x383x128xf32>
    %padded = tensor.pad %extracted_slice low[%c0, %c0, %c0] high[%c0, %c1, %c0] {
    ^bb0(%arg3: index, %arg4: index, %arg5: index):
      tensor.yield %cst_607 : f32
    } : tensor<1x383x128xf32> to tensor<1x384x128xf32>
    %extracted_slice_952 = tensor.extract_slice %11[0, 0, 0] [1, 383, 128] [1, 1, 1] : tensor<1x384x128xf32> to tensor<1x383x128xf32>
    %padded_953 = tensor.pad %extracted_slice_952 low[%c0, %c1, %c0] high[%c0, %c0, %c0] {
    ^bb0(%arg3: index, %arg4: index, %arg5: index):
      tensor.yield %cst_607 : f32
    } : tensor<1x383x128xf32> to tensor<1x384x128xf32>
    %12 = tensor.empty() : tensor<1x384x384xf32>
    %inserted_slice = tensor.insert_slice %padded into %12[0, 0, 0] [1, 384, 128] [1, 1, 1] : tensor<1x384x128xf32> into tensor<1x384x384xf32>
    %inserted_slice_954 = tensor.insert_slice %11 into %inserted_slice[0, 0, 128] [1, 384, 128] [1, 1, 1] : tensor<1x384x128xf32> into tensor<1x384x384xf32>
    %inserted_slice_955 = tensor.insert_slice %padded_953 into %inserted_slice_954[0, 0, 256] [1, 384, 128] [1, 1, 1] : tensor<1x384x128xf32> into tensor<1x384x384xf32>
    %collapsed = tensor.collapse_shape %inserted_slice_955 [[0, 1], [2]] : tensor<1x384x384xf32> into tensor<384x384xf32>
    %13 = tensor.empty() : tensor<384x512xf32>
    %14 = linalg.fill ins(%cst_607 : f32) outs(%13 : tensor<384x512xf32>) -> tensor<384x512xf32>
    %15 = tensor.empty() : tensor<384x512xf32>
    %16 = linalg.matmul ins(%collapsed, %cst_245 : tensor<384x384xf32>, tensor<384x512xf32>) outs(%14 : tensor<384x512xf32>) -> tensor<384x512xf32>
    %17 = linalg.generic {indexing_maps = [#map6, #map, #map], iterator_types = ["parallel", "parallel"]} ins(%cst_613, %16 : tensor<512xf32>, tensor<384x512xf32>) outs(%15 : tensor<384x512xf32>) {
    ^bb0(%in: f32, %in_2787: f32, %out: f32):
      %4421 = arith.addf %in, %in_2787 : f32
      linalg.yield %4421 : f32
    } -> tensor<384x512xf32>
    %expanded_956 = tensor.expand_shape %17 [[0, 1], [2]] : tensor<384x512xf32> into tensor<1x384x512xf32>
    %18 = tensor.empty() : tensor<1x384x512xf32>
    %19 = linalg.generic {indexing_maps = [#map3, #map3, #map3], iterator_types = ["parallel", "parallel", "parallel"]} ins(%expanded_956, %cst_614 : tensor<1x384x512xf32>, tensor<1x384x512xf32>) outs(%18 : tensor<1x384x512xf32>) {
    ^bb0(%in: f32, %in_2787: f32, %out: f32):
      %4421 = arith.addf %in, %in_2787 : f32
      linalg.yield %4421 : f32
    } -> tensor<1x384x512xf32>
    %20 = tensor.empty() : tensor<1x384x512xf32>
    %21 = linalg.generic {indexing_maps = [#map3, #map3, #map3], iterator_types = ["parallel", "parallel", "parallel"]} ins(%19, %9 : tensor<1x384x512xf32>, tensor<1x384x512xf32>) outs(%20 : tensor<1x384x512xf32>) {
    ^bb0(%in: f32, %in_2787: f32, %out: f32):
      %4421 = arith.addf %in, %in_2787 : f32
      linalg.yield %4421 : f32
    } -> tensor<1x384x512xf32>
    %22 = tensor.empty() : tensor<1x384x512xf32>
    %23 = linalg.generic {indexing_maps = [#map3, #map1, #map3], iterator_types = ["parallel", "parallel", "parallel"]} ins(%21, %cst_238 : tensor<1x384x512xf32>, tensor<1x512xf32>) outs(%22 : tensor<1x384x512xf32>) {
    ^bb0(%in: f32, %in_2787: f32, %out: f32):
      %4421 = arith.mulf %in, %in_2787 : f32
      linalg.yield %4421 : f32
    } -> tensor<1x384x512xf32>
    %24 = tensor.empty() : tensor<1x384x512xf32>
    %25 = linalg.generic {indexing_maps = [#map3, #map1, #map3], iterator_types = ["parallel", "parallel", "parallel"]} ins(%23, %cst_237 : tensor<1x384x512xf32>, tensor<1x512xf32>) outs(%24 : tensor<1x384x512xf32>) {
    ^bb0(%in: f32, %in_2787: f32, %out: f32):
      %4421 = arith.addf %in, %in_2787 : f32
      linalg.yield %4421 : f32
    } -> tensor<1x384x512xf32>
    %collapsed_957 = tensor.collapse_shape %21 [[0, 1], [2]] : tensor<1x384x512xf32> into tensor<384x512xf32>
    %26 = tensor.empty() : tensor<384x128xf32>
    %27 = linalg.fill ins(%cst_607 : f32) outs(%26 : tensor<384x128xf32>) -> tensor<384x128xf32>
    %28 = tensor.empty() : tensor<384x128xf32>
    %29 = linalg.matmul ins(%collapsed_957, %cst_246 : tensor<384x512xf32>, tensor<512x128xf32>) outs(%27 : tensor<384x128xf32>) -> tensor<384x128xf32>
    %30 = linalg.generic {indexing_maps = [#map6, #map, #map], iterator_types = ["parallel", "parallel"]} ins(%cst_615, %29 : tensor<128xf32>, tensor<384x128xf32>) outs(%28 : tensor<384x128xf32>) {
    ^bb0(%in: f32, %in_2787: f32, %out: f32):
      %4421 = arith.addf %in, %in_2787 : f32
      linalg.yield %4421 : f32
    } -> tensor<384x128xf32>
    %expanded_958 = tensor.expand_shape %30 [[0, 1], [2, 3]] : tensor<384x128xf32> into tensor<1x384x4x32xf32>
    %collapsed_959 = tensor.collapse_shape %21 [[0, 1], [2]] : tensor<1x384x512xf32> into tensor<384x512xf32>
    %31 = tensor.empty() : tensor<384x128xf32>
    %32 = linalg.fill ins(%cst_607 : f32) outs(%31 : tensor<384x128xf32>) -> tensor<384x128xf32>
    %33 = tensor.empty() : tensor<384x128xf32>
    %34 = linalg.matmul ins(%collapsed_959, %cst_247 : tensor<384x512xf32>, tensor<512x128xf32>) outs(%32 : tensor<384x128xf32>) -> tensor<384x128xf32>
    %35 = linalg.generic {indexing_maps = [#map6, #map, #map], iterator_types = ["parallel", "parallel"]} ins(%cst_616, %34 : tensor<128xf32>, tensor<384x128xf32>) outs(%33 : tensor<384x128xf32>) {
    ^bb0(%in: f32, %in_2787: f32, %out: f32):
      %4421 = arith.addf %in, %in_2787 : f32
      linalg.yield %4421 : f32
    } -> tensor<384x128xf32>
    %expanded_960 = tensor.expand_shape %35 [[0, 1], [2]] : tensor<384x128xf32> into tensor<1x384x128xf32>
    %collapsed_961 = tensor.collapse_shape %25 [[0, 1], [2]] : tensor<1x384x512xf32> into tensor<384x512xf32>
    %36 = tensor.empty() : tensor<384x128xf32>
    %37 = linalg.fill ins(%cst_607 : f32) outs(%36 : tensor<384x128xf32>) -> tensor<384x128xf32>
    %38 = tensor.empty() : tensor<384x128xf32>
    %39 = linalg.matmul ins(%collapsed_961, %cst_248 : tensor<384x512xf32>, tensor<512x128xf32>) outs(%37 : tensor<384x128xf32>) -> tensor<384x128xf32>
    %40 = linalg.generic {indexing_maps = [#map6, #map, #map], iterator_types = ["parallel", "parallel"]} ins(%cst_612, %39 : tensor<128xf32>, tensor<384x128xf32>) outs(%38 : tensor<384x128xf32>) {
    ^bb0(%in: f32, %in_2787: f32, %out: f32):
      %4421 = arith.addf %in, %in_2787 : f32
      linalg.yield %4421 : f32
    } -> tensor<384x128xf32>
    %41 = tensor.empty() : tensor<384x128xf32>
    %42 = linalg.fill ins(%cst_607 : f32) outs(%41 : tensor<384x128xf32>) -> tensor<384x128xf32>
    %43 = tensor.empty() : tensor<384x128xf32>
    %44 = linalg.matmul ins(%40, %cst_249 : tensor<384x128xf32>, tensor<128x128xf32>) outs(%42 : tensor<384x128xf32>) -> tensor<384x128xf32>
    %45 = linalg.generic {indexing_maps = [#map6, #map, #map], iterator_types = ["parallel", "parallel"]} ins(%cst_617, %44 : tensor<128xf32>, tensor<384x128xf32>) outs(%43 : tensor<384x128xf32>) {
    ^bb0(%in: f32, %in_2787: f32, %out: f32):
      %4421 = arith.addf %in, %in_2787 : f32
      linalg.yield %4421 : f32
    } -> tensor<384x128xf32>
    %expanded_962 = tensor.expand_shape %45 [[0, 1], [2, 3]] : tensor<384x128xf32> into tensor<1x384x4x32xf32>
    %46 = tensor.empty() : tensor<384x128xf32>
    %47 = linalg.fill ins(%cst_607 : f32) outs(%46 : tensor<384x128xf32>) -> tensor<384x128xf32>
    %48 = tensor.empty() : tensor<384x128xf32>
    %49 = linalg.matmul ins(%40, %cst_250 : tensor<384x128xf32>, tensor<128x128xf32>) outs(%47 : tensor<384x128xf32>) -> tensor<384x128xf32>
    %50 = linalg.generic {indexing_maps = [#map6, #map, #map], iterator_types = ["parallel", "parallel"]} ins(%cst_618, %49 : tensor<128xf32>, tensor<384x128xf32>) outs(%48 : tensor<384x128xf32>) {
    ^bb0(%in: f32, %in_2787: f32, %out: f32):
      %4421 = arith.addf %in, %in_2787 : f32
      linalg.yield %4421 : f32
    } -> tensor<384x128xf32>
    %expanded_963 = tensor.expand_shape %50 [[0, 1], [2, 3]] : tensor<384x128xf32> into tensor<1x384x4x32xf32>
    %51 = tensor.empty() : tensor<1x4x384x32xf32>
    %52 = linalg.generic {indexing_maps = [#map7, #map5], iterator_types = ["parallel", "parallel", "parallel", "parallel"]} ins(%expanded_962 : tensor<1x384x4x32xf32>) outs(%51 : tensor<1x4x384x32xf32>) {
    ^bb0(%in: f32, %out: f32):
      linalg.yield %in : f32
    } -> tensor<1x4x384x32xf32>
    %53 = tensor.empty() : tensor<1x4x32x384xf32>
    %54 = linalg.generic {indexing_maps = [#map8, #map5], iterator_types = ["parallel", "parallel", "parallel", "parallel"]} ins(%expanded_963 : tensor<1x384x4x32xf32>) outs(%53 : tensor<1x4x32x384xf32>) {
    ^bb0(%in: f32, %out: f32):
      linalg.yield %in : f32
    } -> tensor<1x4x32x384xf32>
    %collapsed_964 = tensor.collapse_shape %52 [[0, 1], [2], [3]] : tensor<1x4x384x32xf32> into tensor<4x384x32xf32>
    %extracted_slice_965 = tensor.extract_slice %collapsed_964[0, 0, 0] [1, 384, 32] [1, 1, 1] : tensor<4x384x32xf32> to tensor<1x384x32xf32>
    %extracted_slice_966 = tensor.extract_slice %collapsed_964[1, 0, 0] [1, 384, 32] [1, 1, 1] : tensor<4x384x32xf32> to tensor<1x384x32xf32>
    %extracted_slice_967 = tensor.extract_slice %collapsed_964[2, 0, 0] [1, 384, 32] [1, 1, 1] : tensor<4x384x32xf32> to tensor<1x384x32xf32>
    %extracted_slice_968 = tensor.extract_slice %collapsed_964[3, 0, 0] [1, 384, 32] [1, 1, 1] : tensor<4x384x32xf32> to tensor<1x384x32xf32>
    %collapsed_969 = tensor.collapse_shape %54 [[0, 1], [2], [3]] : tensor<1x4x32x384xf32> into tensor<4x32x384xf32>
    %extracted_slice_970 = tensor.extract_slice %collapsed_969[0, 0, 0] [1, 32, 384] [1, 1, 1] : tensor<4x32x384xf32> to tensor<1x32x384xf32>
    %extracted_slice_971 = tensor.extract_slice %collapsed_969[1, 0, 0] [1, 32, 384] [1, 1, 1] : tensor<4x32x384xf32> to tensor<1x32x384xf32>
    %extracted_slice_972 = tensor.extract_slice %collapsed_969[2, 0, 0] [1, 32, 384] [1, 1, 1] : tensor<4x32x384xf32> to tensor<1x32x384xf32>
    %extracted_slice_973 = tensor.extract_slice %collapsed_969[3, 0, 0] [1, 32, 384] [1, 1, 1] : tensor<4x32x384xf32> to tensor<1x32x384xf32>
    %collapsed_974 = tensor.collapse_shape %extracted_slice_970 [[0, 1], [2]] : tensor<1x32x384xf32> into tensor<32x384xf32>
    %collapsed_975 = tensor.collapse_shape %extracted_slice_971 [[0, 1], [2]] : tensor<1x32x384xf32> into tensor<32x384xf32>
    %collapsed_976 = tensor.collapse_shape %extracted_slice_972 [[0, 1], [2]] : tensor<1x32x384xf32> into tensor<32x384xf32>
    %collapsed_977 = tensor.collapse_shape %extracted_slice_973 [[0, 1], [2]] : tensor<1x32x384xf32> into tensor<32x384xf32>
    %collapsed_978 = tensor.collapse_shape %extracted_slice_965 [[0, 1], [2]] : tensor<1x384x32xf32> into tensor<384x32xf32>
    %55 = tensor.empty() : tensor<384x384xf32>
    %56 = linalg.fill ins(%cst_607 : f32) outs(%55 : tensor<384x384xf32>) -> tensor<384x384xf32>
    %57 = tensor.empty() : tensor<384x384xf32>
    %58 = linalg.matmul ins(%collapsed_978, %collapsed_974 : tensor<384x32xf32>, tensor<32x384xf32>) outs(%56 : tensor<384x384xf32>) -> tensor<384x384xf32>
    %59 = linalg.generic {indexing_maps = [#map6, #map, #map], iterator_types = ["parallel", "parallel"]} ins(%cst_611, %58 : tensor<384xf32>, tensor<384x384xf32>) outs(%57 : tensor<384x384xf32>) {
    ^bb0(%in: f32, %in_2787: f32, %out: f32):
      %4421 = arith.addf %in, %in_2787 : f32
      linalg.yield %4421 : f32
    } -> tensor<384x384xf32>
    %collapsed_979 = tensor.collapse_shape %extracted_slice_966 [[0, 1], [2]] : tensor<1x384x32xf32> into tensor<384x32xf32>
    %60 = tensor.empty() : tensor<384x384xf32>
    %61 = linalg.fill ins(%cst_607 : f32) outs(%60 : tensor<384x384xf32>) -> tensor<384x384xf32>
    %62 = tensor.empty() : tensor<384x384xf32>
    %63 = linalg.matmul ins(%collapsed_979, %collapsed_975 : tensor<384x32xf32>, tensor<32x384xf32>) outs(%61 : tensor<384x384xf32>) -> tensor<384x384xf32>
    %64 = linalg.generic {indexing_maps = [#map6, #map, #map], iterator_types = ["parallel", "parallel"]} ins(%cst_611, %63 : tensor<384xf32>, tensor<384x384xf32>) outs(%62 : tensor<384x384xf32>) {
    ^bb0(%in: f32, %in_2787: f32, %out: f32):
      %4421 = arith.addf %in, %in_2787 : f32
      linalg.yield %4421 : f32
    } -> tensor<384x384xf32>
    %collapsed_980 = tensor.collapse_shape %extracted_slice_967 [[0, 1], [2]] : tensor<1x384x32xf32> into tensor<384x32xf32>
    %65 = tensor.empty() : tensor<384x384xf32>
    %66 = linalg.fill ins(%cst_607 : f32) outs(%65 : tensor<384x384xf32>) -> tensor<384x384xf32>
    %67 = tensor.empty() : tensor<384x384xf32>
    %68 = linalg.matmul ins(%collapsed_980, %collapsed_976 : tensor<384x32xf32>, tensor<32x384xf32>) outs(%66 : tensor<384x384xf32>) -> tensor<384x384xf32>
    %69 = linalg.generic {indexing_maps = [#map6, #map, #map], iterator_types = ["parallel", "parallel"]} ins(%cst_611, %68 : tensor<384xf32>, tensor<384x384xf32>) outs(%67 : tensor<384x384xf32>) {
    ^bb0(%in: f32, %in_2787: f32, %out: f32):
      %4421 = arith.addf %in, %in_2787 : f32
      linalg.yield %4421 : f32
    } -> tensor<384x384xf32>
    %collapsed_981 = tensor.collapse_shape %extracted_slice_968 [[0, 1], [2]] : tensor<1x384x32xf32> into tensor<384x32xf32>
    %70 = tensor.empty() : tensor<384x384xf32>
    %71 = linalg.fill ins(%cst_607 : f32) outs(%70 : tensor<384x384xf32>) -> tensor<384x384xf32>
    %72 = tensor.empty() : tensor<384x384xf32>
    %73 = linalg.matmul ins(%collapsed_981, %collapsed_977 : tensor<384x32xf32>, tensor<32x384xf32>) outs(%71 : tensor<384x384xf32>) -> tensor<384x384xf32>
    %74 = linalg.generic {indexing_maps = [#map6, #map, #map], iterator_types = ["parallel", "parallel"]} ins(%cst_611, %73 : tensor<384xf32>, tensor<384x384xf32>) outs(%72 : tensor<384x384xf32>) {
    ^bb0(%in: f32, %in_2787: f32, %out: f32):
      %4421 = arith.addf %in, %in_2787 : f32
      linalg.yield %4421 : f32
    } -> tensor<384x384xf32>
    %75 = tensor.empty() : tensor<1536x384xf32>
    %inserted_slice_982 = tensor.insert_slice %59 into %75[0, 0] [384, 384] [1, 1] : tensor<384x384xf32> into tensor<1536x384xf32>
    %inserted_slice_983 = tensor.insert_slice %64 into %inserted_slice_982[384, 0] [384, 384] [1, 1] : tensor<384x384xf32> into tensor<1536x384xf32>
    %inserted_slice_984 = tensor.insert_slice %69 into %inserted_slice_983[768, 0] [384, 384] [1, 1] : tensor<384x384xf32> into tensor<1536x384xf32>
    %inserted_slice_985 = tensor.insert_slice %74 into %inserted_slice_984[1152, 0] [384, 384] [1, 1] : tensor<384x384xf32> into tensor<1536x384xf32>
    %expanded_986 = tensor.expand_shape %inserted_slice_985 [[0, 1, 2], [3]] : tensor<1536x384xf32> into tensor<1x4x384x384xf32>
    %76 = tensor.empty() : tensor<1x4x384x384xf32>
    %77 = linalg.generic {indexing_maps = [#map9, #map5], iterator_types = ["parallel", "parallel", "parallel", "parallel"]} ins(%expanded_986 : tensor<1x4x384x384xf32>) outs(%76 : tensor<1x4x384x384xf32>) {
    ^bb0(%in: f32, %out: f32):
      linalg.yield %in : f32
    } -> tensor<1x4x384x384xf32>
    %78 = tensor.empty() : tensor<1x4x384x384xf32>
    %collapsed_987 = tensor.collapse_shape %7 [[0, 1], [2], [3]] : tensor<1x1x384x384xf32> into tensor<1x384x384xf32>
    %79 = linalg.generic {indexing_maps = [#map5, #map10, #map5], iterator_types = ["parallel", "parallel", "parallel", "parallel"]} ins(%77, %collapsed_987 : tensor<1x4x384x384xf32>, tensor<1x384x384xf32>) outs(%78 : tensor<1x4x384x384xf32>) {
    ^bb0(%in: f32, %in_2787: f32, %out: f32):
      %4421 = arith.addf %in, %in_2787 : f32
      linalg.yield %4421 : f32
    } -> tensor<1x4x384x384xf32>
    %80 = tensor.empty() : tensor<1x4x384xf32>
    %81 = linalg.fill ins(%cst_241 : f32) outs(%80 : tensor<1x4x384xf32>) -> tensor<1x4x384xf32>
    %82 = linalg.generic {indexing_maps = [#map5, #map11], iterator_types = ["parallel", "parallel", "parallel", "reduction"]} ins(%79 : tensor<1x4x384x384xf32>) outs(%81 : tensor<1x4x384xf32>) {
    ^bb0(%in: f32, %out: f32):
      %4421 = arith.maxf %in, %out : f32
      linalg.yield %4421 : f32
    } -> tensor<1x4x384xf32>
    %83 = tensor.empty() : tensor<1x4x384x384xf32>
    %84 = linalg.generic {indexing_maps = [#map5, #map11, #map5], iterator_types = ["parallel", "parallel", "parallel", "parallel"]} ins(%79, %82 : tensor<1x4x384x384xf32>, tensor<1x4x384xf32>) outs(%83 : tensor<1x4x384x384xf32>) {
    ^bb0(%in: f32, %in_2787: f32, %out: f32):
      %4421 = arith.subf %in, %in_2787 : f32
      linalg.yield %4421 : f32
    } -> tensor<1x4x384x384xf32>
    %85 = tensor.empty() : tensor<1x4x384x384xf32>
    %86 = linalg.generic {indexing_maps = [#map5, #map5], iterator_types = ["parallel", "parallel", "parallel", "parallel"]} ins(%84 : tensor<1x4x384x384xf32>) outs(%85 : tensor<1x4x384x384xf32>) {
    ^bb0(%in: f32, %out: f32):
      %4421 = math.exp %in : f32
      linalg.yield %4421 : f32
    } -> tensor<1x4x384x384xf32>
    %87 = tensor.empty() : tensor<1x4x384xf32>
    %88 = linalg.fill ins(%cst_607 : f32) outs(%87 : tensor<1x4x384xf32>) -> tensor<1x4x384xf32>
    %89 = linalg.generic {indexing_maps = [#map5, #map11], iterator_types = ["parallel", "parallel", "parallel", "reduction"]} ins(%86 : tensor<1x4x384x384xf32>) outs(%88 : tensor<1x4x384xf32>) {
    ^bb0(%in: f32, %out: f32):
      %4421 = arith.addf %in, %out : f32
      linalg.yield %4421 : f32
    } -> tensor<1x4x384xf32>
    %expanded_988 = tensor.expand_shape %89 [[0], [1], [2, 3]] : tensor<1x4x384xf32> into tensor<1x4x384x1xf32>
    %90 = tensor.empty() : tensor<1x4x384x1xf32>
    %91 = linalg.generic {indexing_maps = [#map5, #map5], iterator_types = ["parallel", "parallel", "parallel", "parallel"]} ins(%expanded_988 : tensor<1x4x384x1xf32>) outs(%90 : tensor<1x4x384x1xf32>) {
    ^bb0(%in: f32, %out: f32):
      %4421 = arith.divf %cst_240, %in : f32
      linalg.yield %4421 : f32
    } -> tensor<1x4x384x1xf32>
    %92 = tensor.empty() : tensor<1x4x384x384xf32>
    %collapsed_989 = tensor.collapse_shape %91 [[0], [1], [2, 3]] : tensor<1x4x384x1xf32> into tensor<1x4x384xf32>
    %93 = linalg.generic {indexing_maps = [#map5, #map11, #map5], iterator_types = ["parallel", "parallel", "parallel", "parallel"]} ins(%86, %collapsed_989 : tensor<1x4x384x384xf32>, tensor<1x4x384xf32>) outs(%92 : tensor<1x4x384x384xf32>) {
    ^bb0(%in: f32, %in_2787: f32, %out: f32):
      %4421 = arith.mulf %in, %in_2787 : f32
      linalg.yield %4421 : f32
    } -> tensor<1x4x384x384xf32>
    %94 = tensor.empty() : tensor<1x4x384x32xf32>
    %95 = linalg.generic {indexing_maps = [#map7, #map5], iterator_types = ["parallel", "parallel", "parallel", "parallel"]} ins(%expanded_958 : tensor<1x384x4x32xf32>) outs(%94 : tensor<1x4x384x32xf32>) {
    ^bb0(%in: f32, %out: f32):
      linalg.yield %in : f32
    } -> tensor<1x4x384x32xf32>
    %collapsed_990 = tensor.collapse_shape %93 [[0, 1], [2], [3]] : tensor<1x4x384x384xf32> into tensor<4x384x384xf32>
    %extracted_slice_991 = tensor.extract_slice %collapsed_990[0, 0, 0] [1, 384, 384] [1, 1, 1] : tensor<4x384x384xf32> to tensor<1x384x384xf32>
    %extracted_slice_992 = tensor.extract_slice %collapsed_990[1, 0, 0] [1, 384, 384] [1, 1, 1] : tensor<4x384x384xf32> to tensor<1x384x384xf32>
    %extracted_slice_993 = tensor.extract_slice %collapsed_990[2, 0, 0] [1, 384, 384] [1, 1, 1] : tensor<4x384x384xf32> to tensor<1x384x384xf32>
    %extracted_slice_994 = tensor.extract_slice %collapsed_990[3, 0, 0] [1, 384, 384] [1, 1, 1] : tensor<4x384x384xf32> to tensor<1x384x384xf32>
    %collapsed_995 = tensor.collapse_shape %95 [[0, 1], [2], [3]] : tensor<1x4x384x32xf32> into tensor<4x384x32xf32>
    %extracted_slice_996 = tensor.extract_slice %collapsed_995[0, 0, 0] [1, 384, 32] [1, 1, 1] : tensor<4x384x32xf32> to tensor<1x384x32xf32>
    %extracted_slice_997 = tensor.extract_slice %collapsed_995[1, 0, 0] [1, 384, 32] [1, 1, 1] : tensor<4x384x32xf32> to tensor<1x384x32xf32>
    %extracted_slice_998 = tensor.extract_slice %collapsed_995[2, 0, 0] [1, 384, 32] [1, 1, 1] : tensor<4x384x32xf32> to tensor<1x384x32xf32>
    %extracted_slice_999 = tensor.extract_slice %collapsed_995[3, 0, 0] [1, 384, 32] [1, 1, 1] : tensor<4x384x32xf32> to tensor<1x384x32xf32>
    %collapsed_1000 = tensor.collapse_shape %extracted_slice_996 [[0, 1], [2]] : tensor<1x384x32xf32> into tensor<384x32xf32>
    %collapsed_1001 = tensor.collapse_shape %extracted_slice_997 [[0, 1], [2]] : tensor<1x384x32xf32> into tensor<384x32xf32>
    %collapsed_1002 = tensor.collapse_shape %extracted_slice_998 [[0, 1], [2]] : tensor<1x384x32xf32> into tensor<384x32xf32>
    %collapsed_1003 = tensor.collapse_shape %extracted_slice_999 [[0, 1], [2]] : tensor<1x384x32xf32> into tensor<384x32xf32>
    %collapsed_1004 = tensor.collapse_shape %extracted_slice_991 [[0, 1], [2]] : tensor<1x384x384xf32> into tensor<384x384xf32>
    %96 = tensor.empty() : tensor<384x32xf32>
    %97 = linalg.fill ins(%cst_607 : f32) outs(%96 : tensor<384x32xf32>) -> tensor<384x32xf32>
    %98 = tensor.empty() : tensor<384x32xf32>
    %99 = linalg.matmul ins(%collapsed_1004, %collapsed_1000 : tensor<384x384xf32>, tensor<384x32xf32>) outs(%97 : tensor<384x32xf32>) -> tensor<384x32xf32>
    %100 = linalg.generic {indexing_maps = [#map6, #map, #map], iterator_types = ["parallel", "parallel"]} ins(%cst_610, %99 : tensor<32xf32>, tensor<384x32xf32>) outs(%98 : tensor<384x32xf32>) {
    ^bb0(%in: f32, %in_2787: f32, %out: f32):
      %4421 = arith.addf %in, %in_2787 : f32
      linalg.yield %4421 : f32
    } -> tensor<384x32xf32>
    %collapsed_1005 = tensor.collapse_shape %extracted_slice_992 [[0, 1], [2]] : tensor<1x384x384xf32> into tensor<384x384xf32>
    %101 = tensor.empty() : tensor<384x32xf32>
    %102 = linalg.fill ins(%cst_607 : f32) outs(%101 : tensor<384x32xf32>) -> tensor<384x32xf32>
    %103 = tensor.empty() : tensor<384x32xf32>
    %104 = linalg.matmul ins(%collapsed_1005, %collapsed_1001 : tensor<384x384xf32>, tensor<384x32xf32>) outs(%102 : tensor<384x32xf32>) -> tensor<384x32xf32>
    %105 = linalg.generic {indexing_maps = [#map6, #map, #map], iterator_types = ["parallel", "parallel"]} ins(%cst_610, %104 : tensor<32xf32>, tensor<384x32xf32>) outs(%103 : tensor<384x32xf32>) {
    ^bb0(%in: f32, %in_2787: f32, %out: f32):
      %4421 = arith.addf %in, %in_2787 : f32
      linalg.yield %4421 : f32
    } -> tensor<384x32xf32>
    %collapsed_1006 = tensor.collapse_shape %extracted_slice_993 [[0, 1], [2]] : tensor<1x384x384xf32> into tensor<384x384xf32>
    %106 = tensor.empty() : tensor<384x32xf32>
    %107 = linalg.fill ins(%cst_607 : f32) outs(%106 : tensor<384x32xf32>) -> tensor<384x32xf32>
    %108 = tensor.empty() : tensor<384x32xf32>
    %109 = linalg.matmul ins(%collapsed_1006, %collapsed_1002 : tensor<384x384xf32>, tensor<384x32xf32>) outs(%107 : tensor<384x32xf32>) -> tensor<384x32xf32>
    %110 = linalg.generic {indexing_maps = [#map6, #map, #map], iterator_types = ["parallel", "parallel"]} ins(%cst_610, %109 : tensor<32xf32>, tensor<384x32xf32>) outs(%108 : tensor<384x32xf32>) {
    ^bb0(%in: f32, %in_2787: f32, %out: f32):
      %4421 = arith.addf %in, %in_2787 : f32
      linalg.yield %4421 : f32
    } -> tensor<384x32xf32>
    %collapsed_1007 = tensor.collapse_shape %extracted_slice_994 [[0, 1], [2]] : tensor<1x384x384xf32> into tensor<384x384xf32>
    %111 = tensor.empty() : tensor<384x32xf32>
    %112 = linalg.fill ins(%cst_607 : f32) outs(%111 : tensor<384x32xf32>) -> tensor<384x32xf32>
    %113 = tensor.empty() : tensor<384x32xf32>
    %114 = linalg.matmul ins(%collapsed_1007, %collapsed_1003 : tensor<384x384xf32>, tensor<384x32xf32>) outs(%112 : tensor<384x32xf32>) -> tensor<384x32xf32>
    %115 = linalg.generic {indexing_maps = [#map6, #map, #map], iterator_types = ["parallel", "parallel"]} ins(%cst_610, %114 : tensor<32xf32>, tensor<384x32xf32>) outs(%113 : tensor<384x32xf32>) {
    ^bb0(%in: f32, %in_2787: f32, %out: f32):
      %4421 = arith.addf %in, %in_2787 : f32
      linalg.yield %4421 : f32
    } -> tensor<384x32xf32>
    %116 = tensor.empty() : tensor<1536x32xf32>
    %inserted_slice_1008 = tensor.insert_slice %100 into %116[0, 0] [384, 32] [1, 1] : tensor<384x32xf32> into tensor<1536x32xf32>
    %inserted_slice_1009 = tensor.insert_slice %105 into %inserted_slice_1008[384, 0] [384, 32] [1, 1] : tensor<384x32xf32> into tensor<1536x32xf32>
    %inserted_slice_1010 = tensor.insert_slice %110 into %inserted_slice_1009[768, 0] [384, 32] [1, 1] : tensor<384x32xf32> into tensor<1536x32xf32>
    %inserted_slice_1011 = tensor.insert_slice %115 into %inserted_slice_1010[1152, 0] [384, 32] [1, 1] : tensor<384x32xf32> into tensor<1536x32xf32>
    %expanded_1012 = tensor.expand_shape %inserted_slice_1011 [[0, 1, 2], [3]] : tensor<1536x32xf32> into tensor<1x4x384x32xf32>
    %117 = tensor.empty() : tensor<1x384x4x32xf32>
    %118 = linalg.generic {indexing_maps = [#map7, #map5], iterator_types = ["parallel", "parallel", "parallel", "parallel"]} ins(%expanded_1012 : tensor<1x4x384x32xf32>) outs(%117 : tensor<1x384x4x32xf32>) {
    ^bb0(%in: f32, %out: f32):
      linalg.yield %in : f32
    } -> tensor<1x384x4x32xf32>
    %collapsed_1013 = tensor.collapse_shape %118 [[0, 1], [2, 3]] : tensor<1x384x4x32xf32> into tensor<384x128xf32>
    %119 = tensor.empty() : tensor<384x128xf32>
    %120 = linalg.fill ins(%cst_607 : f32) outs(%119 : tensor<384x128xf32>) -> tensor<384x128xf32>
    %121 = tensor.empty() : tensor<384x128xf32>
    %122 = linalg.matmul ins(%collapsed_1013, %cst_251 : tensor<384x128xf32>, tensor<128x128xf32>) outs(%120 : tensor<384x128xf32>) -> tensor<384x128xf32>
    %123 = linalg.generic {indexing_maps = [#map6, #map, #map], iterator_types = ["parallel", "parallel"]} ins(%cst_619, %122 : tensor<128xf32>, tensor<384x128xf32>) outs(%121 : tensor<384x128xf32>) {
    ^bb0(%in: f32, %in_2787: f32, %out: f32):
      %4421 = arith.addf %in, %in_2787 : f32
      linalg.yield %4421 : f32
    } -> tensor<384x128xf32>
    %expanded_1014 = tensor.expand_shape %123 [[0, 1], [2]] : tensor<384x128xf32> into tensor<1x384x128xf32>
    %124 = tensor.empty() : tensor<1x384x128xf32>
    %125 = linalg.generic {indexing_maps = [#map3, #map3, #map3], iterator_types = ["parallel", "parallel", "parallel"]} ins(%expanded_1014, %expanded_960 : tensor<1x384x128xf32>, tensor<1x384x128xf32>) outs(%124 : tensor<1x384x128xf32>) {
    ^bb0(%in: f32, %in_2787: f32, %out: f32):
      %4421 = arith.addf %in, %in_2787 : f32
      linalg.yield %4421 : f32
    } -> tensor<1x384x128xf32>
    %126 = tensor.empty() : tensor<1x384x128xf32>
    %127 = linalg.generic {indexing_maps = [#map3, #map1, #map3], iterator_types = ["parallel", "parallel", "parallel"]} ins(%125, %cst_236 : tensor<1x384x128xf32>, tensor<1x128xf32>) outs(%126 : tensor<1x384x128xf32>) {
    ^bb0(%in: f32, %in_2787: f32, %out: f32):
      %4421 = arith.mulf %in, %in_2787 : f32
      linalg.yield %4421 : f32
    } -> tensor<1x384x128xf32>
    %128 = tensor.empty() : tensor<1x384x128xf32>
    %129 = linalg.generic {indexing_maps = [#map3, #map1, #map3], iterator_types = ["parallel", "parallel", "parallel"]} ins(%127, %cst_235 : tensor<1x384x128xf32>, tensor<1x128xf32>) outs(%128 : tensor<1x384x128xf32>) {
    ^bb0(%in: f32, %in_2787: f32, %out: f32):
      %4421 = arith.addf %in, %in_2787 : f32
      linalg.yield %4421 : f32
    } -> tensor<1x384x128xf32>
    %collapsed_1015 = tensor.collapse_shape %125 [[0, 1], [2]] : tensor<1x384x128xf32> into tensor<384x128xf32>
    %130 = tensor.empty() : tensor<384x512xf32>
    %131 = linalg.fill ins(%cst_607 : f32) outs(%130 : tensor<384x512xf32>) -> tensor<384x512xf32>
    %132 = tensor.empty() : tensor<384x512xf32>
    %133 = linalg.matmul ins(%collapsed_1015, %cst_252 : tensor<384x128xf32>, tensor<128x512xf32>) outs(%131 : tensor<384x512xf32>) -> tensor<384x512xf32>
    %134 = linalg.generic {indexing_maps = [#map6, #map, #map], iterator_types = ["parallel", "parallel"]} ins(%cst_620, %133 : tensor<512xf32>, tensor<384x512xf32>) outs(%132 : tensor<384x512xf32>) {
    ^bb0(%in: f32, %in_2787: f32, %out: f32):
      %4421 = arith.addf %in, %in_2787 : f32
      linalg.yield %4421 : f32
    } -> tensor<384x512xf32>
    %expanded_1016 = tensor.expand_shape %134 [[0, 1], [2]] : tensor<384x512xf32> into tensor<1x384x512xf32>
    %135 = tensor.empty() : tensor<1x384x512xf32>
    %136 = linalg.generic {indexing_maps = [#map3, #map3], iterator_types = ["parallel", "parallel", "parallel"]} ins(%expanded_1016 : tensor<1x384x512xf32>) outs(%135 : tensor<1x384x512xf32>) {
    ^bb0(%in: f32, %out: f32):
      %4421 = arith.minf %in, %cst_239 : f32
      %4422 = arith.maxf %4421, %cst_607 : f32
      linalg.yield %4422 : f32
    } -> tensor<1x384x512xf32>
    %collapsed_1017 = tensor.collapse_shape %136 [[0, 1], [2]] : tensor<1x384x512xf32> into tensor<384x512xf32>
    %137 = tensor.empty() : tensor<384x128xf32>
    %138 = linalg.fill ins(%cst_607 : f32) outs(%137 : tensor<384x128xf32>) -> tensor<384x128xf32>
    %139 = tensor.empty() : tensor<384x128xf32>
    %140 = linalg.matmul ins(%collapsed_1017, %cst_253 : tensor<384x512xf32>, tensor<512x128xf32>) outs(%138 : tensor<384x128xf32>) -> tensor<384x128xf32>
    %141 = linalg.generic {indexing_maps = [#map6, #map, #map], iterator_types = ["parallel", "parallel"]} ins(%cst_621, %140 : tensor<128xf32>, tensor<384x128xf32>) outs(%139 : tensor<384x128xf32>) {
    ^bb0(%in: f32, %in_2787: f32, %out: f32):
      %4421 = arith.addf %in, %in_2787 : f32
      linalg.yield %4421 : f32
    } -> tensor<384x128xf32>
    %expanded_1018 = tensor.expand_shape %141 [[0, 1], [2]] : tensor<384x128xf32> into tensor<1x384x128xf32>
    %142 = tensor.empty() : tensor<1x384x128xf32>
    %143 = linalg.generic {indexing_maps = [#map3, #map3, #map3], iterator_types = ["parallel", "parallel", "parallel"]} ins(%expanded_1018, %129 : tensor<1x384x128xf32>, tensor<1x384x128xf32>) outs(%142 : tensor<1x384x128xf32>) {
    ^bb0(%in: f32, %in_2787: f32, %out: f32):
      %4421 = arith.addf %in, %in_2787 : f32
      linalg.yield %4421 : f32
    } -> tensor<1x384x128xf32>
    %144 = tensor.empty() : tensor<1x384x128xf32>
    %145 = linalg.generic {indexing_maps = [#map3, #map1, #map3], iterator_types = ["parallel", "parallel", "parallel"]} ins(%143, %cst_234 : tensor<1x384x128xf32>, tensor<1x128xf32>) outs(%144 : tensor<1x384x128xf32>) {
    ^bb0(%in: f32, %in_2787: f32, %out: f32):
      %4421 = arith.mulf %in, %in_2787 : f32
      linalg.yield %4421 : f32
    } -> tensor<1x384x128xf32>
    %146 = tensor.empty() : tensor<1x384x128xf32>
    %147 = linalg.generic {indexing_maps = [#map3, #map1, #map3], iterator_types = ["parallel", "parallel", "parallel"]} ins(%145, %cst_233 : tensor<1x384x128xf32>, tensor<1x128xf32>) outs(%146 : tensor<1x384x128xf32>) {
    ^bb0(%in: f32, %in_2787: f32, %out: f32):
      %4421 = arith.addf %in, %in_2787 : f32
      linalg.yield %4421 : f32
    } -> tensor<1x384x128xf32>
    %collapsed_1019 = tensor.collapse_shape %143 [[0, 1], [2]] : tensor<1x384x128xf32> into tensor<384x128xf32>
    %148 = tensor.empty() : tensor<384x512xf32>
    %149 = linalg.fill ins(%cst_607 : f32) outs(%148 : tensor<384x512xf32>) -> tensor<384x512xf32>
    %150 = tensor.empty() : tensor<384x512xf32>
    %151 = linalg.matmul ins(%collapsed_1019, %cst_254 : tensor<384x128xf32>, tensor<128x512xf32>) outs(%149 : tensor<384x512xf32>) -> tensor<384x512xf32>
    %152 = linalg.generic {indexing_maps = [#map6, #map, #map], iterator_types = ["parallel", "parallel"]} ins(%cst_622, %151 : tensor<512xf32>, tensor<384x512xf32>) outs(%150 : tensor<384x512xf32>) {
    ^bb0(%in: f32, %in_2787: f32, %out: f32):
      %4421 = arith.addf %in, %in_2787 : f32
      linalg.yield %4421 : f32
    } -> tensor<384x512xf32>
    %expanded_1020 = tensor.expand_shape %152 [[0, 1], [2]] : tensor<384x512xf32> into tensor<1x384x512xf32>
    %153 = tensor.empty() : tensor<1x384x512xf32>
    %154 = linalg.generic {indexing_maps = [#map3, #map3], iterator_types = ["parallel", "parallel", "parallel"]} ins(%expanded_1020 : tensor<1x384x512xf32>) outs(%153 : tensor<1x384x512xf32>) {
    ^bb0(%in: f32, %out: f32):
      %4421 = arith.minf %in, %cst_239 : f32
      %4422 = arith.maxf %4421, %cst_607 : f32
      linalg.yield %4422 : f32
    } -> tensor<1x384x512xf32>
    %collapsed_1021 = tensor.collapse_shape %154 [[0, 1], [2]] : tensor<1x384x512xf32> into tensor<384x512xf32>
    %155 = tensor.empty() : tensor<384x128xf32>
    %156 = linalg.fill ins(%cst_607 : f32) outs(%155 : tensor<384x128xf32>) -> tensor<384x128xf32>
    %157 = tensor.empty() : tensor<384x128xf32>
    %158 = linalg.matmul ins(%collapsed_1021, %cst_255 : tensor<384x512xf32>, tensor<512x128xf32>) outs(%156 : tensor<384x128xf32>) -> tensor<384x128xf32>
    %159 = linalg.generic {indexing_maps = [#map6, #map, #map], iterator_types = ["parallel", "parallel"]} ins(%cst_623, %158 : tensor<128xf32>, tensor<384x128xf32>) outs(%157 : tensor<384x128xf32>) {
    ^bb0(%in: f32, %in_2787: f32, %out: f32):
      %4421 = arith.addf %in, %in_2787 : f32
      linalg.yield %4421 : f32
    } -> tensor<384x128xf32>
    %expanded_1022 = tensor.expand_shape %159 [[0, 1], [2]] : tensor<384x128xf32> into tensor<1x384x128xf32>
    %160 = tensor.empty() : tensor<1x384x128xf32>
    %161 = linalg.generic {indexing_maps = [#map3, #map3, #map3], iterator_types = ["parallel", "parallel", "parallel"]} ins(%expanded_1022, %147 : tensor<1x384x128xf32>, tensor<1x384x128xf32>) outs(%160 : tensor<1x384x128xf32>) {
    ^bb0(%in: f32, %in_2787: f32, %out: f32):
      %4421 = arith.addf %in, %in_2787 : f32
      linalg.yield %4421 : f32
    } -> tensor<1x384x128xf32>
    %162 = tensor.empty() : tensor<1x384x128xf32>
    %163 = linalg.generic {indexing_maps = [#map3, #map1, #map3], iterator_types = ["parallel", "parallel", "parallel"]} ins(%161, %cst_232 : tensor<1x384x128xf32>, tensor<1x128xf32>) outs(%162 : tensor<1x384x128xf32>) {
    ^bb0(%in: f32, %in_2787: f32, %out: f32):
      %4421 = arith.mulf %in, %in_2787 : f32
      linalg.yield %4421 : f32
    } -> tensor<1x384x128xf32>
    %164 = tensor.empty() : tensor<1x384x128xf32>
    %165 = linalg.generic {indexing_maps = [#map3, #map1, #map3], iterator_types = ["parallel", "parallel", "parallel"]} ins(%163, %cst_231 : tensor<1x384x128xf32>, tensor<1x128xf32>) outs(%164 : tensor<1x384x128xf32>) {
    ^bb0(%in: f32, %in_2787: f32, %out: f32):
      %4421 = arith.addf %in, %in_2787 : f32
      linalg.yield %4421 : f32
    } -> tensor<1x384x128xf32>
    %collapsed_1023 = tensor.collapse_shape %161 [[0, 1], [2]] : tensor<1x384x128xf32> into tensor<384x128xf32>
    %166 = tensor.empty() : tensor<384x512xf32>
    %167 = linalg.fill ins(%cst_607 : f32) outs(%166 : tensor<384x512xf32>) -> tensor<384x512xf32>
    %168 = tensor.empty() : tensor<384x512xf32>
    %169 = linalg.matmul ins(%collapsed_1023, %cst_256 : tensor<384x128xf32>, tensor<128x512xf32>) outs(%167 : tensor<384x512xf32>) -> tensor<384x512xf32>
    %170 = linalg.generic {indexing_maps = [#map6, #map, #map], iterator_types = ["parallel", "parallel"]} ins(%cst_624, %169 : tensor<512xf32>, tensor<384x512xf32>) outs(%168 : tensor<384x512xf32>) {
    ^bb0(%in: f32, %in_2787: f32, %out: f32):
      %4421 = arith.addf %in, %in_2787 : f32
      linalg.yield %4421 : f32
    } -> tensor<384x512xf32>
    %expanded_1024 = tensor.expand_shape %170 [[0, 1], [2]] : tensor<384x512xf32> into tensor<1x384x512xf32>
    %171 = tensor.empty() : tensor<1x384x512xf32>
    %172 = linalg.generic {indexing_maps = [#map3, #map3], iterator_types = ["parallel", "parallel", "parallel"]} ins(%expanded_1024 : tensor<1x384x512xf32>) outs(%171 : tensor<1x384x512xf32>) {
    ^bb0(%in: f32, %out: f32):
      %4421 = arith.minf %in, %cst_239 : f32
      %4422 = arith.maxf %4421, %cst_607 : f32
      linalg.yield %4422 : f32
    } -> tensor<1x384x512xf32>
    %collapsed_1025 = tensor.collapse_shape %172 [[0, 1], [2]] : tensor<1x384x512xf32> into tensor<384x512xf32>
    %173 = tensor.empty() : tensor<384x128xf32>
    %174 = linalg.fill ins(%cst_607 : f32) outs(%173 : tensor<384x128xf32>) -> tensor<384x128xf32>
    %175 = tensor.empty() : tensor<384x128xf32>
    %176 = linalg.matmul ins(%collapsed_1025, %cst_257 : tensor<384x512xf32>, tensor<512x128xf32>) outs(%174 : tensor<384x128xf32>) -> tensor<384x128xf32>
    %177 = linalg.generic {indexing_maps = [#map6, #map, #map], iterator_types = ["parallel", "parallel"]} ins(%cst_625, %176 : tensor<128xf32>, tensor<384x128xf32>) outs(%175 : tensor<384x128xf32>) {
    ^bb0(%in: f32, %in_2787: f32, %out: f32):
      %4421 = arith.addf %in, %in_2787 : f32
      linalg.yield %4421 : f32
    } -> tensor<384x128xf32>
    %expanded_1026 = tensor.expand_shape %177 [[0, 1], [2]] : tensor<384x128xf32> into tensor<1x384x128xf32>
    %178 = tensor.empty() : tensor<1x384x128xf32>
    %179 = linalg.generic {indexing_maps = [#map3, #map3, #map3], iterator_types = ["parallel", "parallel", "parallel"]} ins(%expanded_1026, %165 : tensor<1x384x128xf32>, tensor<1x384x128xf32>) outs(%178 : tensor<1x384x128xf32>) {
    ^bb0(%in: f32, %in_2787: f32, %out: f32):
      %4421 = arith.addf %in, %in_2787 : f32
      linalg.yield %4421 : f32
    } -> tensor<1x384x128xf32>
    %180 = tensor.empty() : tensor<1x384x128xf32>
    %181 = linalg.generic {indexing_maps = [#map3, #map1, #map3], iterator_types = ["parallel", "parallel", "parallel"]} ins(%179, %cst_230 : tensor<1x384x128xf32>, tensor<1x128xf32>) outs(%180 : tensor<1x384x128xf32>) {
    ^bb0(%in: f32, %in_2787: f32, %out: f32):
      %4421 = arith.mulf %in, %in_2787 : f32
      linalg.yield %4421 : f32
    } -> tensor<1x384x128xf32>
    %182 = tensor.empty() : tensor<1x384x128xf32>
    %183 = linalg.generic {indexing_maps = [#map3, #map1, #map3], iterator_types = ["parallel", "parallel", "parallel"]} ins(%181, %cst_229 : tensor<1x384x128xf32>, tensor<1x128xf32>) outs(%182 : tensor<1x384x128xf32>) {
    ^bb0(%in: f32, %in_2787: f32, %out: f32):
      %4421 = arith.addf %in, %in_2787 : f32
      linalg.yield %4421 : f32
    } -> tensor<1x384x128xf32>
    %collapsed_1027 = tensor.collapse_shape %179 [[0, 1], [2]] : tensor<1x384x128xf32> into tensor<384x128xf32>
    %184 = tensor.empty() : tensor<384x512xf32>
    %185 = linalg.fill ins(%cst_607 : f32) outs(%184 : tensor<384x512xf32>) -> tensor<384x512xf32>
    %186 = tensor.empty() : tensor<384x512xf32>
    %187 = linalg.matmul ins(%collapsed_1027, %cst_258 : tensor<384x128xf32>, tensor<128x512xf32>) outs(%185 : tensor<384x512xf32>) -> tensor<384x512xf32>
    %188 = linalg.generic {indexing_maps = [#map6, #map, #map], iterator_types = ["parallel", "parallel"]} ins(%cst_626, %187 : tensor<512xf32>, tensor<384x512xf32>) outs(%186 : tensor<384x512xf32>) {
    ^bb0(%in: f32, %in_2787: f32, %out: f32):
      %4421 = arith.addf %in, %in_2787 : f32
      linalg.yield %4421 : f32
    } -> tensor<384x512xf32>
    %expanded_1028 = tensor.expand_shape %188 [[0, 1], [2]] : tensor<384x512xf32> into tensor<1x384x512xf32>
    %189 = tensor.empty() : tensor<1x384x512xf32>
    %190 = linalg.generic {indexing_maps = [#map3, #map3], iterator_types = ["parallel", "parallel", "parallel"]} ins(%expanded_1028 : tensor<1x384x512xf32>) outs(%189 : tensor<1x384x512xf32>) {
    ^bb0(%in: f32, %out: f32):
      %4421 = arith.minf %in, %cst_239 : f32
      %4422 = arith.maxf %4421, %cst_607 : f32
      linalg.yield %4422 : f32
    } -> tensor<1x384x512xf32>
    %collapsed_1029 = tensor.collapse_shape %190 [[0, 1], [2]] : tensor<1x384x512xf32> into tensor<384x512xf32>
    %191 = tensor.empty() : tensor<384x128xf32>
    %192 = linalg.fill ins(%cst_607 : f32) outs(%191 : tensor<384x128xf32>) -> tensor<384x128xf32>
    %193 = tensor.empty() : tensor<384x128xf32>
    %194 = linalg.matmul ins(%collapsed_1029, %cst_259 : tensor<384x512xf32>, tensor<512x128xf32>) outs(%192 : tensor<384x128xf32>) -> tensor<384x128xf32>
    %195 = linalg.generic {indexing_maps = [#map6, #map, #map], iterator_types = ["parallel", "parallel"]} ins(%cst_627, %194 : tensor<128xf32>, tensor<384x128xf32>) outs(%193 : tensor<384x128xf32>) {
    ^bb0(%in: f32, %in_2787: f32, %out: f32):
      %4421 = arith.addf %in, %in_2787 : f32
      linalg.yield %4421 : f32
    } -> tensor<384x128xf32>
    %expanded_1030 = tensor.expand_shape %195 [[0, 1], [2]] : tensor<384x128xf32> into tensor<1x384x128xf32>
    %196 = tensor.empty() : tensor<1x384x128xf32>
    %197 = linalg.generic {indexing_maps = [#map3, #map3, #map3], iterator_types = ["parallel", "parallel", "parallel"]} ins(%expanded_1030, %183 : tensor<1x384x128xf32>, tensor<1x384x128xf32>) outs(%196 : tensor<1x384x128xf32>) {
    ^bb0(%in: f32, %in_2787: f32, %out: f32):
      %4421 = arith.addf %in, %in_2787 : f32
      linalg.yield %4421 : f32
    } -> tensor<1x384x128xf32>
    %collapsed_1031 = tensor.collapse_shape %197 [[0, 1], [2]] : tensor<1x384x128xf32> into tensor<384x128xf32>
    %198 = tensor.empty() : tensor<384x512xf32>
    %199 = linalg.fill ins(%cst_607 : f32) outs(%198 : tensor<384x512xf32>) -> tensor<384x512xf32>
    %200 = tensor.empty() : tensor<384x512xf32>
    %201 = linalg.matmul ins(%collapsed_1031, %cst_260 : tensor<384x128xf32>, tensor<128x512xf32>) outs(%199 : tensor<384x512xf32>) -> tensor<384x512xf32>
    %202 = linalg.generic {indexing_maps = [#map6, #map, #map], iterator_types = ["parallel", "parallel"]} ins(%cst_628, %201 : tensor<512xf32>, tensor<384x512xf32>) outs(%200 : tensor<384x512xf32>) {
    ^bb0(%in: f32, %in_2787: f32, %out: f32):
      %4421 = arith.addf %in, %in_2787 : f32
      linalg.yield %4421 : f32
    } -> tensor<384x512xf32>
    %expanded_1032 = tensor.expand_shape %202 [[0, 1], [2]] : tensor<384x512xf32> into tensor<1x384x512xf32>
    %203 = tensor.empty() : tensor<1x384x512xf32>
    %204 = linalg.generic {indexing_maps = [#map3, #map3, #map3], iterator_types = ["parallel", "parallel", "parallel"]} ins(%expanded_1032, %25 : tensor<1x384x512xf32>, tensor<1x384x512xf32>) outs(%203 : tensor<1x384x512xf32>) {
    ^bb0(%in: f32, %in_2787: f32, %out: f32):
      %4421 = arith.addf %in, %in_2787 : f32
      linalg.yield %4421 : f32
    } -> tensor<1x384x512xf32>
    %205 = tensor.empty() : tensor<1x384x512xf32>
    %206 = linalg.generic {indexing_maps = [#map3, #map1, #map3], iterator_types = ["parallel", "parallel", "parallel"]} ins(%204, %cst_228 : tensor<1x384x512xf32>, tensor<1x512xf32>) outs(%205 : tensor<1x384x512xf32>) {
    ^bb0(%in: f32, %in_2787: f32, %out: f32):
      %4421 = arith.mulf %in, %in_2787 : f32
      linalg.yield %4421 : f32
    } -> tensor<1x384x512xf32>
    %207 = tensor.empty() : tensor<1x384x512xf32>
    %208 = linalg.generic {indexing_maps = [#map3, #map1, #map3], iterator_types = ["parallel", "parallel", "parallel"]} ins(%206, %cst_227 : tensor<1x384x512xf32>, tensor<1x512xf32>) outs(%207 : tensor<1x384x512xf32>) {
    ^bb0(%in: f32, %in_2787: f32, %out: f32):
      %4421 = arith.addf %in, %in_2787 : f32
      linalg.yield %4421 : f32
    } -> tensor<1x384x512xf32>
    %collapsed_1033 = tensor.collapse_shape %204 [[0, 1], [2]] : tensor<1x384x512xf32> into tensor<384x512xf32>
    %209 = tensor.empty() : tensor<384x128xf32>
    %210 = linalg.fill ins(%cst_607 : f32) outs(%209 : tensor<384x128xf32>) -> tensor<384x128xf32>
    %211 = tensor.empty() : tensor<384x128xf32>
    %212 = linalg.matmul ins(%collapsed_1033, %cst_261 : tensor<384x512xf32>, tensor<512x128xf32>) outs(%210 : tensor<384x128xf32>) -> tensor<384x128xf32>
    %213 = linalg.generic {indexing_maps = [#map6, #map, #map], iterator_types = ["parallel", "parallel"]} ins(%cst_629, %212 : tensor<128xf32>, tensor<384x128xf32>) outs(%211 : tensor<384x128xf32>) {
    ^bb0(%in: f32, %in_2787: f32, %out: f32):
      %4421 = arith.addf %in, %in_2787 : f32
      linalg.yield %4421 : f32
    } -> tensor<384x128xf32>
    %expanded_1034 = tensor.expand_shape %213 [[0, 1], [2, 3]] : tensor<384x128xf32> into tensor<1x384x4x32xf32>
    %collapsed_1035 = tensor.collapse_shape %204 [[0, 1], [2]] : tensor<1x384x512xf32> into tensor<384x512xf32>
    %214 = tensor.empty() : tensor<384x128xf32>
    %215 = linalg.fill ins(%cst_607 : f32) outs(%214 : tensor<384x128xf32>) -> tensor<384x128xf32>
    %216 = tensor.empty() : tensor<384x128xf32>
    %217 = linalg.matmul ins(%collapsed_1035, %cst_262 : tensor<384x512xf32>, tensor<512x128xf32>) outs(%215 : tensor<384x128xf32>) -> tensor<384x128xf32>
    %218 = linalg.generic {indexing_maps = [#map6, #map, #map], iterator_types = ["parallel", "parallel"]} ins(%cst_630, %217 : tensor<128xf32>, tensor<384x128xf32>) outs(%216 : tensor<384x128xf32>) {
    ^bb0(%in: f32, %in_2787: f32, %out: f32):
      %4421 = arith.addf %in, %in_2787 : f32
      linalg.yield %4421 : f32
    } -> tensor<384x128xf32>
    %expanded_1036 = tensor.expand_shape %218 [[0, 1], [2]] : tensor<384x128xf32> into tensor<1x384x128xf32>
    %collapsed_1037 = tensor.collapse_shape %208 [[0, 1], [2]] : tensor<1x384x512xf32> into tensor<384x512xf32>
    %219 = tensor.empty() : tensor<384x128xf32>
    %220 = linalg.fill ins(%cst_607 : f32) outs(%219 : tensor<384x128xf32>) -> tensor<384x128xf32>
    %221 = tensor.empty() : tensor<384x128xf32>
    %222 = linalg.matmul ins(%collapsed_1037, %cst_263 : tensor<384x512xf32>, tensor<512x128xf32>) outs(%220 : tensor<384x128xf32>) -> tensor<384x128xf32>
    %223 = linalg.generic {indexing_maps = [#map6, #map, #map], iterator_types = ["parallel", "parallel"]} ins(%cst_612, %222 : tensor<128xf32>, tensor<384x128xf32>) outs(%221 : tensor<384x128xf32>) {
    ^bb0(%in: f32, %in_2787: f32, %out: f32):
      %4421 = arith.addf %in, %in_2787 : f32
      linalg.yield %4421 : f32
    } -> tensor<384x128xf32>
    %224 = tensor.empty() : tensor<384x128xf32>
    %225 = linalg.fill ins(%cst_607 : f32) outs(%224 : tensor<384x128xf32>) -> tensor<384x128xf32>
    %226 = tensor.empty() : tensor<384x128xf32>
    %227 = linalg.matmul ins(%223, %cst_264 : tensor<384x128xf32>, tensor<128x128xf32>) outs(%225 : tensor<384x128xf32>) -> tensor<384x128xf32>
    %228 = linalg.generic {indexing_maps = [#map6, #map, #map], iterator_types = ["parallel", "parallel"]} ins(%cst_631, %227 : tensor<128xf32>, tensor<384x128xf32>) outs(%226 : tensor<384x128xf32>) {
    ^bb0(%in: f32, %in_2787: f32, %out: f32):
      %4421 = arith.addf %in, %in_2787 : f32
      linalg.yield %4421 : f32
    } -> tensor<384x128xf32>
    %expanded_1038 = tensor.expand_shape %228 [[0, 1], [2, 3]] : tensor<384x128xf32> into tensor<1x384x4x32xf32>
    %229 = tensor.empty() : tensor<384x128xf32>
    %230 = linalg.fill ins(%cst_607 : f32) outs(%229 : tensor<384x128xf32>) -> tensor<384x128xf32>
    %231 = tensor.empty() : tensor<384x128xf32>
    %232 = linalg.matmul ins(%223, %cst_265 : tensor<384x128xf32>, tensor<128x128xf32>) outs(%230 : tensor<384x128xf32>) -> tensor<384x128xf32>
    %233 = linalg.generic {indexing_maps = [#map6, #map, #map], iterator_types = ["parallel", "parallel"]} ins(%cst_632, %232 : tensor<128xf32>, tensor<384x128xf32>) outs(%231 : tensor<384x128xf32>) {
    ^bb0(%in: f32, %in_2787: f32, %out: f32):
      %4421 = arith.addf %in, %in_2787 : f32
      linalg.yield %4421 : f32
    } -> tensor<384x128xf32>
    %expanded_1039 = tensor.expand_shape %233 [[0, 1], [2, 3]] : tensor<384x128xf32> into tensor<1x384x4x32xf32>
    %234 = tensor.empty() : tensor<1x4x384x32xf32>
    %235 = linalg.generic {indexing_maps = [#map7, #map5], iterator_types = ["parallel", "parallel", "parallel", "parallel"]} ins(%expanded_1038 : tensor<1x384x4x32xf32>) outs(%234 : tensor<1x4x384x32xf32>) {
    ^bb0(%in: f32, %out: f32):
      linalg.yield %in : f32
    } -> tensor<1x4x384x32xf32>
    %236 = tensor.empty() : tensor<1x4x32x384xf32>
    %237 = linalg.generic {indexing_maps = [#map8, #map5], iterator_types = ["parallel", "parallel", "parallel", "parallel"]} ins(%expanded_1039 : tensor<1x384x4x32xf32>) outs(%236 : tensor<1x4x32x384xf32>) {
    ^bb0(%in: f32, %out: f32):
      linalg.yield %in : f32
    } -> tensor<1x4x32x384xf32>
    %collapsed_1040 = tensor.collapse_shape %235 [[0, 1], [2], [3]] : tensor<1x4x384x32xf32> into tensor<4x384x32xf32>
    %extracted_slice_1041 = tensor.extract_slice %collapsed_1040[0, 0, 0] [1, 384, 32] [1, 1, 1] : tensor<4x384x32xf32> to tensor<1x384x32xf32>
    %extracted_slice_1042 = tensor.extract_slice %collapsed_1040[1, 0, 0] [1, 384, 32] [1, 1, 1] : tensor<4x384x32xf32> to tensor<1x384x32xf32>
    %extracted_slice_1043 = tensor.extract_slice %collapsed_1040[2, 0, 0] [1, 384, 32] [1, 1, 1] : tensor<4x384x32xf32> to tensor<1x384x32xf32>
    %extracted_slice_1044 = tensor.extract_slice %collapsed_1040[3, 0, 0] [1, 384, 32] [1, 1, 1] : tensor<4x384x32xf32> to tensor<1x384x32xf32>
    %collapsed_1045 = tensor.collapse_shape %237 [[0, 1], [2], [3]] : tensor<1x4x32x384xf32> into tensor<4x32x384xf32>
    %extracted_slice_1046 = tensor.extract_slice %collapsed_1045[0, 0, 0] [1, 32, 384] [1, 1, 1] : tensor<4x32x384xf32> to tensor<1x32x384xf32>
    %extracted_slice_1047 = tensor.extract_slice %collapsed_1045[1, 0, 0] [1, 32, 384] [1, 1, 1] : tensor<4x32x384xf32> to tensor<1x32x384xf32>
    %extracted_slice_1048 = tensor.extract_slice %collapsed_1045[2, 0, 0] [1, 32, 384] [1, 1, 1] : tensor<4x32x384xf32> to tensor<1x32x384xf32>
    %extracted_slice_1049 = tensor.extract_slice %collapsed_1045[3, 0, 0] [1, 32, 384] [1, 1, 1] : tensor<4x32x384xf32> to tensor<1x32x384xf32>
    %collapsed_1050 = tensor.collapse_shape %extracted_slice_1046 [[0, 1], [2]] : tensor<1x32x384xf32> into tensor<32x384xf32>
    %collapsed_1051 = tensor.collapse_shape %extracted_slice_1047 [[0, 1], [2]] : tensor<1x32x384xf32> into tensor<32x384xf32>
    %collapsed_1052 = tensor.collapse_shape %extracted_slice_1048 [[0, 1], [2]] : tensor<1x32x384xf32> into tensor<32x384xf32>
    %collapsed_1053 = tensor.collapse_shape %extracted_slice_1049 [[0, 1], [2]] : tensor<1x32x384xf32> into tensor<32x384xf32>
    %collapsed_1054 = tensor.collapse_shape %extracted_slice_1041 [[0, 1], [2]] : tensor<1x384x32xf32> into tensor<384x32xf32>
    %238 = tensor.empty() : tensor<384x384xf32>
    %239 = linalg.fill ins(%cst_607 : f32) outs(%238 : tensor<384x384xf32>) -> tensor<384x384xf32>
    %240 = tensor.empty() : tensor<384x384xf32>
    %241 = linalg.matmul ins(%collapsed_1054, %collapsed_1050 : tensor<384x32xf32>, tensor<32x384xf32>) outs(%239 : tensor<384x384xf32>) -> tensor<384x384xf32>
    %242 = linalg.generic {indexing_maps = [#map6, #map, #map], iterator_types = ["parallel", "parallel"]} ins(%cst_611, %241 : tensor<384xf32>, tensor<384x384xf32>) outs(%240 : tensor<384x384xf32>) {
    ^bb0(%in: f32, %in_2787: f32, %out: f32):
      %4421 = arith.addf %in, %in_2787 : f32
      linalg.yield %4421 : f32
    } -> tensor<384x384xf32>
    %collapsed_1055 = tensor.collapse_shape %extracted_slice_1042 [[0, 1], [2]] : tensor<1x384x32xf32> into tensor<384x32xf32>
    %243 = tensor.empty() : tensor<384x384xf32>
    %244 = linalg.fill ins(%cst_607 : f32) outs(%243 : tensor<384x384xf32>) -> tensor<384x384xf32>
    %245 = tensor.empty() : tensor<384x384xf32>
    %246 = linalg.matmul ins(%collapsed_1055, %collapsed_1051 : tensor<384x32xf32>, tensor<32x384xf32>) outs(%244 : tensor<384x384xf32>) -> tensor<384x384xf32>
    %247 = linalg.generic {indexing_maps = [#map6, #map, #map], iterator_types = ["parallel", "parallel"]} ins(%cst_611, %246 : tensor<384xf32>, tensor<384x384xf32>) outs(%245 : tensor<384x384xf32>) {
    ^bb0(%in: f32, %in_2787: f32, %out: f32):
      %4421 = arith.addf %in, %in_2787 : f32
      linalg.yield %4421 : f32
    } -> tensor<384x384xf32>
    %collapsed_1056 = tensor.collapse_shape %extracted_slice_1043 [[0, 1], [2]] : tensor<1x384x32xf32> into tensor<384x32xf32>
    %248 = tensor.empty() : tensor<384x384xf32>
    %249 = linalg.fill ins(%cst_607 : f32) outs(%248 : tensor<384x384xf32>) -> tensor<384x384xf32>
    %250 = tensor.empty() : tensor<384x384xf32>
    %251 = linalg.matmul ins(%collapsed_1056, %collapsed_1052 : tensor<384x32xf32>, tensor<32x384xf32>) outs(%249 : tensor<384x384xf32>) -> tensor<384x384xf32>
    %252 = linalg.generic {indexing_maps = [#map6, #map, #map], iterator_types = ["parallel", "parallel"]} ins(%cst_611, %251 : tensor<384xf32>, tensor<384x384xf32>) outs(%250 : tensor<384x384xf32>) {
    ^bb0(%in: f32, %in_2787: f32, %out: f32):
      %4421 = arith.addf %in, %in_2787 : f32
      linalg.yield %4421 : f32
    } -> tensor<384x384xf32>
    %collapsed_1057 = tensor.collapse_shape %extracted_slice_1044 [[0, 1], [2]] : tensor<1x384x32xf32> into tensor<384x32xf32>
    %253 = tensor.empty() : tensor<384x384xf32>
    %254 = linalg.fill ins(%cst_607 : f32) outs(%253 : tensor<384x384xf32>) -> tensor<384x384xf32>
    %255 = tensor.empty() : tensor<384x384xf32>
    %256 = linalg.matmul ins(%collapsed_1057, %collapsed_1053 : tensor<384x32xf32>, tensor<32x384xf32>) outs(%254 : tensor<384x384xf32>) -> tensor<384x384xf32>
    %257 = linalg.generic {indexing_maps = [#map6, #map, #map], iterator_types = ["parallel", "parallel"]} ins(%cst_611, %256 : tensor<384xf32>, tensor<384x384xf32>) outs(%255 : tensor<384x384xf32>) {
    ^bb0(%in: f32, %in_2787: f32, %out: f32):
      %4421 = arith.addf %in, %in_2787 : f32
      linalg.yield %4421 : f32
    } -> tensor<384x384xf32>
    %258 = tensor.empty() : tensor<1536x384xf32>
    %inserted_slice_1058 = tensor.insert_slice %242 into %258[0, 0] [384, 384] [1, 1] : tensor<384x384xf32> into tensor<1536x384xf32>
    %inserted_slice_1059 = tensor.insert_slice %247 into %inserted_slice_1058[384, 0] [384, 384] [1, 1] : tensor<384x384xf32> into tensor<1536x384xf32>
    %inserted_slice_1060 = tensor.insert_slice %252 into %inserted_slice_1059[768, 0] [384, 384] [1, 1] : tensor<384x384xf32> into tensor<1536x384xf32>
    %inserted_slice_1061 = tensor.insert_slice %257 into %inserted_slice_1060[1152, 0] [384, 384] [1, 1] : tensor<384x384xf32> into tensor<1536x384xf32>
    %expanded_1062 = tensor.expand_shape %inserted_slice_1061 [[0, 1, 2], [3]] : tensor<1536x384xf32> into tensor<1x4x384x384xf32>
    %259 = tensor.empty() : tensor<1x4x384x384xf32>
    %260 = linalg.generic {indexing_maps = [#map9, #map5], iterator_types = ["parallel", "parallel", "parallel", "parallel"]} ins(%expanded_1062 : tensor<1x4x384x384xf32>) outs(%259 : tensor<1x4x384x384xf32>) {
    ^bb0(%in: f32, %out: f32):
      linalg.yield %in : f32
    } -> tensor<1x4x384x384xf32>
    %261 = tensor.empty() : tensor<1x4x384x384xf32>
    %collapsed_1063 = tensor.collapse_shape %7 [[0, 1], [2], [3]] : tensor<1x1x384x384xf32> into tensor<1x384x384xf32>
    %262 = linalg.generic {indexing_maps = [#map5, #map10, #map5], iterator_types = ["parallel", "parallel", "parallel", "parallel"]} ins(%260, %collapsed_1063 : tensor<1x4x384x384xf32>, tensor<1x384x384xf32>) outs(%261 : tensor<1x4x384x384xf32>) {
    ^bb0(%in: f32, %in_2787: f32, %out: f32):
      %4421 = arith.addf %in, %in_2787 : f32
      linalg.yield %4421 : f32
    } -> tensor<1x4x384x384xf32>
    %263 = tensor.empty() : tensor<1x4x384xf32>
    %264 = linalg.fill ins(%cst_241 : f32) outs(%263 : tensor<1x4x384xf32>) -> tensor<1x4x384xf32>
    %265 = linalg.generic {indexing_maps = [#map5, #map11], iterator_types = ["parallel", "parallel", "parallel", "reduction"]} ins(%262 : tensor<1x4x384x384xf32>) outs(%264 : tensor<1x4x384xf32>) {
    ^bb0(%in: f32, %out: f32):
      %4421 = arith.maxf %in, %out : f32
      linalg.yield %4421 : f32
    } -> tensor<1x4x384xf32>
    %266 = tensor.empty() : tensor<1x4x384x384xf32>
    %267 = linalg.generic {indexing_maps = [#map5, #map11, #map5], iterator_types = ["parallel", "parallel", "parallel", "parallel"]} ins(%262, %265 : tensor<1x4x384x384xf32>, tensor<1x4x384xf32>) outs(%266 : tensor<1x4x384x384xf32>) {
    ^bb0(%in: f32, %in_2787: f32, %out: f32):
      %4421 = arith.subf %in, %in_2787 : f32
      linalg.yield %4421 : f32
    } -> tensor<1x4x384x384xf32>
    %268 = tensor.empty() : tensor<1x4x384x384xf32>
    %269 = linalg.generic {indexing_maps = [#map5, #map5], iterator_types = ["parallel", "parallel", "parallel", "parallel"]} ins(%267 : tensor<1x4x384x384xf32>) outs(%268 : tensor<1x4x384x384xf32>) {
    ^bb0(%in: f32, %out: f32):
      %4421 = math.exp %in : f32
      linalg.yield %4421 : f32
    } -> tensor<1x4x384x384xf32>
    %270 = tensor.empty() : tensor<1x4x384xf32>
    %271 = linalg.fill ins(%cst_607 : f32) outs(%270 : tensor<1x4x384xf32>) -> tensor<1x4x384xf32>
    %272 = linalg.generic {indexing_maps = [#map5, #map11], iterator_types = ["parallel", "parallel", "parallel", "reduction"]} ins(%269 : tensor<1x4x384x384xf32>) outs(%271 : tensor<1x4x384xf32>) {
    ^bb0(%in: f32, %out: f32):
      %4421 = arith.addf %in, %out : f32
      linalg.yield %4421 : f32
    } -> tensor<1x4x384xf32>
    %expanded_1064 = tensor.expand_shape %272 [[0], [1], [2, 3]] : tensor<1x4x384xf32> into tensor<1x4x384x1xf32>
    %273 = tensor.empty() : tensor<1x4x384x1xf32>
    %274 = linalg.generic {indexing_maps = [#map5, #map5], iterator_types = ["parallel", "parallel", "parallel", "parallel"]} ins(%expanded_1064 : tensor<1x4x384x1xf32>) outs(%273 : tensor<1x4x384x1xf32>) {
    ^bb0(%in: f32, %out: f32):
      %4421 = arith.divf %cst_240, %in : f32
      linalg.yield %4421 : f32
    } -> tensor<1x4x384x1xf32>
    %275 = tensor.empty() : tensor<1x4x384x384xf32>
    %collapsed_1065 = tensor.collapse_shape %274 [[0], [1], [2, 3]] : tensor<1x4x384x1xf32> into tensor<1x4x384xf32>
    %276 = linalg.generic {indexing_maps = [#map5, #map11, #map5], iterator_types = ["parallel", "parallel", "parallel", "parallel"]} ins(%269, %collapsed_1065 : tensor<1x4x384x384xf32>, tensor<1x4x384xf32>) outs(%275 : tensor<1x4x384x384xf32>) {
    ^bb0(%in: f32, %in_2787: f32, %out: f32):
      %4421 = arith.mulf %in, %in_2787 : f32
      linalg.yield %4421 : f32
    } -> tensor<1x4x384x384xf32>
    %277 = tensor.empty() : tensor<1x4x384x32xf32>
    %278 = linalg.generic {indexing_maps = [#map7, #map5], iterator_types = ["parallel", "parallel", "parallel", "parallel"]} ins(%expanded_1034 : tensor<1x384x4x32xf32>) outs(%277 : tensor<1x4x384x32xf32>) {
    ^bb0(%in: f32, %out: f32):
      linalg.yield %in : f32
    } -> tensor<1x4x384x32xf32>
    %collapsed_1066 = tensor.collapse_shape %276 [[0, 1], [2], [3]] : tensor<1x4x384x384xf32> into tensor<4x384x384xf32>
    %extracted_slice_1067 = tensor.extract_slice %collapsed_1066[0, 0, 0] [1, 384, 384] [1, 1, 1] : tensor<4x384x384xf32> to tensor<1x384x384xf32>
    %extracted_slice_1068 = tensor.extract_slice %collapsed_1066[1, 0, 0] [1, 384, 384] [1, 1, 1] : tensor<4x384x384xf32> to tensor<1x384x384xf32>
    %extracted_slice_1069 = tensor.extract_slice %collapsed_1066[2, 0, 0] [1, 384, 384] [1, 1, 1] : tensor<4x384x384xf32> to tensor<1x384x384xf32>
    %extracted_slice_1070 = tensor.extract_slice %collapsed_1066[3, 0, 0] [1, 384, 384] [1, 1, 1] : tensor<4x384x384xf32> to tensor<1x384x384xf32>
    %collapsed_1071 = tensor.collapse_shape %278 [[0, 1], [2], [3]] : tensor<1x4x384x32xf32> into tensor<4x384x32xf32>
    %extracted_slice_1072 = tensor.extract_slice %collapsed_1071[0, 0, 0] [1, 384, 32] [1, 1, 1] : tensor<4x384x32xf32> to tensor<1x384x32xf32>
    %extracted_slice_1073 = tensor.extract_slice %collapsed_1071[1, 0, 0] [1, 384, 32] [1, 1, 1] : tensor<4x384x32xf32> to tensor<1x384x32xf32>
    %extracted_slice_1074 = tensor.extract_slice %collapsed_1071[2, 0, 0] [1, 384, 32] [1, 1, 1] : tensor<4x384x32xf32> to tensor<1x384x32xf32>
    %extracted_slice_1075 = tensor.extract_slice %collapsed_1071[3, 0, 0] [1, 384, 32] [1, 1, 1] : tensor<4x384x32xf32> to tensor<1x384x32xf32>
    %collapsed_1076 = tensor.collapse_shape %extracted_slice_1072 [[0, 1], [2]] : tensor<1x384x32xf32> into tensor<384x32xf32>
    %collapsed_1077 = tensor.collapse_shape %extracted_slice_1073 [[0, 1], [2]] : tensor<1x384x32xf32> into tensor<384x32xf32>
    %collapsed_1078 = tensor.collapse_shape %extracted_slice_1074 [[0, 1], [2]] : tensor<1x384x32xf32> into tensor<384x32xf32>
    %collapsed_1079 = tensor.collapse_shape %extracted_slice_1075 [[0, 1], [2]] : tensor<1x384x32xf32> into tensor<384x32xf32>
    %collapsed_1080 = tensor.collapse_shape %extracted_slice_1067 [[0, 1], [2]] : tensor<1x384x384xf32> into tensor<384x384xf32>
    %279 = tensor.empty() : tensor<384x32xf32>
    %280 = linalg.fill ins(%cst_607 : f32) outs(%279 : tensor<384x32xf32>) -> tensor<384x32xf32>
    %281 = tensor.empty() : tensor<384x32xf32>
    %282 = linalg.matmul ins(%collapsed_1080, %collapsed_1076 : tensor<384x384xf32>, tensor<384x32xf32>) outs(%280 : tensor<384x32xf32>) -> tensor<384x32xf32>
    %283 = linalg.generic {indexing_maps = [#map6, #map, #map], iterator_types = ["parallel", "parallel"]} ins(%cst_610, %282 : tensor<32xf32>, tensor<384x32xf32>) outs(%281 : tensor<384x32xf32>) {
    ^bb0(%in: f32, %in_2787: f32, %out: f32):
      %4421 = arith.addf %in, %in_2787 : f32
      linalg.yield %4421 : f32
    } -> tensor<384x32xf32>
    %collapsed_1081 = tensor.collapse_shape %extracted_slice_1068 [[0, 1], [2]] : tensor<1x384x384xf32> into tensor<384x384xf32>
    %284 = tensor.empty() : tensor<384x32xf32>
    %285 = linalg.fill ins(%cst_607 : f32) outs(%284 : tensor<384x32xf32>) -> tensor<384x32xf32>
    %286 = tensor.empty() : tensor<384x32xf32>
    %287 = linalg.matmul ins(%collapsed_1081, %collapsed_1077 : tensor<384x384xf32>, tensor<384x32xf32>) outs(%285 : tensor<384x32xf32>) -> tensor<384x32xf32>
    %288 = linalg.generic {indexing_maps = [#map6, #map, #map], iterator_types = ["parallel", "parallel"]} ins(%cst_610, %287 : tensor<32xf32>, tensor<384x32xf32>) outs(%286 : tensor<384x32xf32>) {
    ^bb0(%in: f32, %in_2787: f32, %out: f32):
      %4421 = arith.addf %in, %in_2787 : f32
      linalg.yield %4421 : f32
    } -> tensor<384x32xf32>
    %collapsed_1082 = tensor.collapse_shape %extracted_slice_1069 [[0, 1], [2]] : tensor<1x384x384xf32> into tensor<384x384xf32>
    %289 = tensor.empty() : tensor<384x32xf32>
    %290 = linalg.fill ins(%cst_607 : f32) outs(%289 : tensor<384x32xf32>) -> tensor<384x32xf32>
    %291 = tensor.empty() : tensor<384x32xf32>
    %292 = linalg.matmul ins(%collapsed_1082, %collapsed_1078 : tensor<384x384xf32>, tensor<384x32xf32>) outs(%290 : tensor<384x32xf32>) -> tensor<384x32xf32>
    %293 = linalg.generic {indexing_maps = [#map6, #map, #map], iterator_types = ["parallel", "parallel"]} ins(%cst_610, %292 : tensor<32xf32>, tensor<384x32xf32>) outs(%291 : tensor<384x32xf32>) {
    ^bb0(%in: f32, %in_2787: f32, %out: f32):
      %4421 = arith.addf %in, %in_2787 : f32
      linalg.yield %4421 : f32
    } -> tensor<384x32xf32>
    %collapsed_1083 = tensor.collapse_shape %extracted_slice_1070 [[0, 1], [2]] : tensor<1x384x384xf32> into tensor<384x384xf32>
    %294 = tensor.empty() : tensor<384x32xf32>
    %295 = linalg.fill ins(%cst_607 : f32) outs(%294 : tensor<384x32xf32>) -> tensor<384x32xf32>
    %296 = tensor.empty() : tensor<384x32xf32>
    %297 = linalg.matmul ins(%collapsed_1083, %collapsed_1079 : tensor<384x384xf32>, tensor<384x32xf32>) outs(%295 : tensor<384x32xf32>) -> tensor<384x32xf32>
    %298 = linalg.generic {indexing_maps = [#map6, #map, #map], iterator_types = ["parallel", "parallel"]} ins(%cst_610, %297 : tensor<32xf32>, tensor<384x32xf32>) outs(%296 : tensor<384x32xf32>) {
    ^bb0(%in: f32, %in_2787: f32, %out: f32):
      %4421 = arith.addf %in, %in_2787 : f32
      linalg.yield %4421 : f32
    } -> tensor<384x32xf32>
    %299 = tensor.empty() : tensor<1536x32xf32>
    %inserted_slice_1084 = tensor.insert_slice %283 into %299[0, 0] [384, 32] [1, 1] : tensor<384x32xf32> into tensor<1536x32xf32>
    %inserted_slice_1085 = tensor.insert_slice %288 into %inserted_slice_1084[384, 0] [384, 32] [1, 1] : tensor<384x32xf32> into tensor<1536x32xf32>
    %inserted_slice_1086 = tensor.insert_slice %293 into %inserted_slice_1085[768, 0] [384, 32] [1, 1] : tensor<384x32xf32> into tensor<1536x32xf32>
    %inserted_slice_1087 = tensor.insert_slice %298 into %inserted_slice_1086[1152, 0] [384, 32] [1, 1] : tensor<384x32xf32> into tensor<1536x32xf32>
    %expanded_1088 = tensor.expand_shape %inserted_slice_1087 [[0, 1, 2], [3]] : tensor<1536x32xf32> into tensor<1x4x384x32xf32>
    %300 = tensor.empty() : tensor<1x384x4x32xf32>
    %301 = linalg.generic {indexing_maps = [#map7, #map5], iterator_types = ["parallel", "parallel", "parallel", "parallel"]} ins(%expanded_1088 : tensor<1x4x384x32xf32>) outs(%300 : tensor<1x384x4x32xf32>) {
    ^bb0(%in: f32, %out: f32):
      linalg.yield %in : f32
    } -> tensor<1x384x4x32xf32>
    %collapsed_1089 = tensor.collapse_shape %301 [[0, 1], [2, 3]] : tensor<1x384x4x32xf32> into tensor<384x128xf32>
    %302 = tensor.empty() : tensor<384x128xf32>
    %303 = linalg.fill ins(%cst_607 : f32) outs(%302 : tensor<384x128xf32>) -> tensor<384x128xf32>
    %304 = tensor.empty() : tensor<384x128xf32>
    %305 = linalg.matmul ins(%collapsed_1089, %cst_266 : tensor<384x128xf32>, tensor<128x128xf32>) outs(%303 : tensor<384x128xf32>) -> tensor<384x128xf32>
    %306 = linalg.generic {indexing_maps = [#map6, #map, #map], iterator_types = ["parallel", "parallel"]} ins(%cst_633, %305 : tensor<128xf32>, tensor<384x128xf32>) outs(%304 : tensor<384x128xf32>) {
    ^bb0(%in: f32, %in_2787: f32, %out: f32):
      %4421 = arith.addf %in, %in_2787 : f32
      linalg.yield %4421 : f32
    } -> tensor<384x128xf32>
    %expanded_1090 = tensor.expand_shape %306 [[0, 1], [2]] : tensor<384x128xf32> into tensor<1x384x128xf32>
    %307 = tensor.empty() : tensor<1x384x128xf32>
    %308 = linalg.generic {indexing_maps = [#map3, #map3, #map3], iterator_types = ["parallel", "parallel", "parallel"]} ins(%expanded_1090, %expanded_1036 : tensor<1x384x128xf32>, tensor<1x384x128xf32>) outs(%307 : tensor<1x384x128xf32>) {
    ^bb0(%in: f32, %in_2787: f32, %out: f32):
      %4421 = arith.addf %in, %in_2787 : f32
      linalg.yield %4421 : f32
    } -> tensor<1x384x128xf32>
    %309 = tensor.empty() : tensor<1x384x128xf32>
    %310 = linalg.generic {indexing_maps = [#map3, #map1, #map3], iterator_types = ["parallel", "parallel", "parallel"]} ins(%308, %cst_226 : tensor<1x384x128xf32>, tensor<1x128xf32>) outs(%309 : tensor<1x384x128xf32>) {
    ^bb0(%in: f32, %in_2787: f32, %out: f32):
      %4421 = arith.mulf %in, %in_2787 : f32
      linalg.yield %4421 : f32
    } -> tensor<1x384x128xf32>
    %311 = tensor.empty() : tensor<1x384x128xf32>
    %312 = linalg.generic {indexing_maps = [#map3, #map1, #map3], iterator_types = ["parallel", "parallel", "parallel"]} ins(%310, %cst_225 : tensor<1x384x128xf32>, tensor<1x128xf32>) outs(%311 : tensor<1x384x128xf32>) {
    ^bb0(%in: f32, %in_2787: f32, %out: f32):
      %4421 = arith.addf %in, %in_2787 : f32
      linalg.yield %4421 : f32
    } -> tensor<1x384x128xf32>
    %collapsed_1091 = tensor.collapse_shape %308 [[0, 1], [2]] : tensor<1x384x128xf32> into tensor<384x128xf32>
    %313 = tensor.empty() : tensor<384x512xf32>
    %314 = linalg.fill ins(%cst_607 : f32) outs(%313 : tensor<384x512xf32>) -> tensor<384x512xf32>
    %315 = tensor.empty() : tensor<384x512xf32>
    %316 = linalg.matmul ins(%collapsed_1091, %cst_267 : tensor<384x128xf32>, tensor<128x512xf32>) outs(%314 : tensor<384x512xf32>) -> tensor<384x512xf32>
    %317 = linalg.generic {indexing_maps = [#map6, #map, #map], iterator_types = ["parallel", "parallel"]} ins(%cst_634, %316 : tensor<512xf32>, tensor<384x512xf32>) outs(%315 : tensor<384x512xf32>) {
    ^bb0(%in: f32, %in_2787: f32, %out: f32):
      %4421 = arith.addf %in, %in_2787 : f32
      linalg.yield %4421 : f32
    } -> tensor<384x512xf32>
    %expanded_1092 = tensor.expand_shape %317 [[0, 1], [2]] : tensor<384x512xf32> into tensor<1x384x512xf32>
    %318 = tensor.empty() : tensor<1x384x512xf32>
    %319 = linalg.generic {indexing_maps = [#map3, #map3], iterator_types = ["parallel", "parallel", "parallel"]} ins(%expanded_1092 : tensor<1x384x512xf32>) outs(%318 : tensor<1x384x512xf32>) {
    ^bb0(%in: f32, %out: f32):
      %4421 = arith.minf %in, %cst_239 : f32
      %4422 = arith.maxf %4421, %cst_607 : f32
      linalg.yield %4422 : f32
    } -> tensor<1x384x512xf32>
    %collapsed_1093 = tensor.collapse_shape %319 [[0, 1], [2]] : tensor<1x384x512xf32> into tensor<384x512xf32>
    %320 = tensor.empty() : tensor<384x128xf32>
    %321 = linalg.fill ins(%cst_607 : f32) outs(%320 : tensor<384x128xf32>) -> tensor<384x128xf32>
    %322 = tensor.empty() : tensor<384x128xf32>
    %323 = linalg.matmul ins(%collapsed_1093, %cst_268 : tensor<384x512xf32>, tensor<512x128xf32>) outs(%321 : tensor<384x128xf32>) -> tensor<384x128xf32>
    %324 = linalg.generic {indexing_maps = [#map6, #map, #map], iterator_types = ["parallel", "parallel"]} ins(%cst_635, %323 : tensor<128xf32>, tensor<384x128xf32>) outs(%322 : tensor<384x128xf32>) {
    ^bb0(%in: f32, %in_2787: f32, %out: f32):
      %4421 = arith.addf %in, %in_2787 : f32
      linalg.yield %4421 : f32
    } -> tensor<384x128xf32>
    %expanded_1094 = tensor.expand_shape %324 [[0, 1], [2]] : tensor<384x128xf32> into tensor<1x384x128xf32>
    %325 = tensor.empty() : tensor<1x384x128xf32>
    %326 = linalg.generic {indexing_maps = [#map3, #map3, #map3], iterator_types = ["parallel", "parallel", "parallel"]} ins(%expanded_1094, %312 : tensor<1x384x128xf32>, tensor<1x384x128xf32>) outs(%325 : tensor<1x384x128xf32>) {
    ^bb0(%in: f32, %in_2787: f32, %out: f32):
      %4421 = arith.addf %in, %in_2787 : f32
      linalg.yield %4421 : f32
    } -> tensor<1x384x128xf32>
    %327 = tensor.empty() : tensor<1x384x128xf32>
    %328 = linalg.generic {indexing_maps = [#map3, #map1, #map3], iterator_types = ["parallel", "parallel", "parallel"]} ins(%326, %cst_224 : tensor<1x384x128xf32>, tensor<1x128xf32>) outs(%327 : tensor<1x384x128xf32>) {
    ^bb0(%in: f32, %in_2787: f32, %out: f32):
      %4421 = arith.mulf %in, %in_2787 : f32
      linalg.yield %4421 : f32
    } -> tensor<1x384x128xf32>
    %329 = tensor.empty() : tensor<1x384x128xf32>
    %330 = linalg.generic {indexing_maps = [#map3, #map1, #map3], iterator_types = ["parallel", "parallel", "parallel"]} ins(%328, %cst_223 : tensor<1x384x128xf32>, tensor<1x128xf32>) outs(%329 : tensor<1x384x128xf32>) {
    ^bb0(%in: f32, %in_2787: f32, %out: f32):
      %4421 = arith.addf %in, %in_2787 : f32
      linalg.yield %4421 : f32
    } -> tensor<1x384x128xf32>
    %collapsed_1095 = tensor.collapse_shape %326 [[0, 1], [2]] : tensor<1x384x128xf32> into tensor<384x128xf32>
    %331 = tensor.empty() : tensor<384x512xf32>
    %332 = linalg.fill ins(%cst_607 : f32) outs(%331 : tensor<384x512xf32>) -> tensor<384x512xf32>
    %333 = tensor.empty() : tensor<384x512xf32>
    %334 = linalg.matmul ins(%collapsed_1095, %cst_269 : tensor<384x128xf32>, tensor<128x512xf32>) outs(%332 : tensor<384x512xf32>) -> tensor<384x512xf32>
    %335 = linalg.generic {indexing_maps = [#map6, #map, #map], iterator_types = ["parallel", "parallel"]} ins(%cst_636, %334 : tensor<512xf32>, tensor<384x512xf32>) outs(%333 : tensor<384x512xf32>) {
    ^bb0(%in: f32, %in_2787: f32, %out: f32):
      %4421 = arith.addf %in, %in_2787 : f32
      linalg.yield %4421 : f32
    } -> tensor<384x512xf32>
    %expanded_1096 = tensor.expand_shape %335 [[0, 1], [2]] : tensor<384x512xf32> into tensor<1x384x512xf32>
    %336 = tensor.empty() : tensor<1x384x512xf32>
    %337 = linalg.generic {indexing_maps = [#map3, #map3], iterator_types = ["parallel", "parallel", "parallel"]} ins(%expanded_1096 : tensor<1x384x512xf32>) outs(%336 : tensor<1x384x512xf32>) {
    ^bb0(%in: f32, %out: f32):
      %4421 = arith.minf %in, %cst_239 : f32
      %4422 = arith.maxf %4421, %cst_607 : f32
      linalg.yield %4422 : f32
    } -> tensor<1x384x512xf32>
    %collapsed_1097 = tensor.collapse_shape %337 [[0, 1], [2]] : tensor<1x384x512xf32> into tensor<384x512xf32>
    %338 = tensor.empty() : tensor<384x128xf32>
    %339 = linalg.fill ins(%cst_607 : f32) outs(%338 : tensor<384x128xf32>) -> tensor<384x128xf32>
    %340 = tensor.empty() : tensor<384x128xf32>
    %341 = linalg.matmul ins(%collapsed_1097, %cst_270 : tensor<384x512xf32>, tensor<512x128xf32>) outs(%339 : tensor<384x128xf32>) -> tensor<384x128xf32>
    %342 = linalg.generic {indexing_maps = [#map6, #map, #map], iterator_types = ["parallel", "parallel"]} ins(%cst_637, %341 : tensor<128xf32>, tensor<384x128xf32>) outs(%340 : tensor<384x128xf32>) {
    ^bb0(%in: f32, %in_2787: f32, %out: f32):
      %4421 = arith.addf %in, %in_2787 : f32
      linalg.yield %4421 : f32
    } -> tensor<384x128xf32>
    %expanded_1098 = tensor.expand_shape %342 [[0, 1], [2]] : tensor<384x128xf32> into tensor<1x384x128xf32>
    %343 = tensor.empty() : tensor<1x384x128xf32>
    %344 = linalg.generic {indexing_maps = [#map3, #map3, #map3], iterator_types = ["parallel", "parallel", "parallel"]} ins(%expanded_1098, %330 : tensor<1x384x128xf32>, tensor<1x384x128xf32>) outs(%343 : tensor<1x384x128xf32>) {
    ^bb0(%in: f32, %in_2787: f32, %out: f32):
      %4421 = arith.addf %in, %in_2787 : f32
      linalg.yield %4421 : f32
    } -> tensor<1x384x128xf32>
    %345 = tensor.empty() : tensor<1x384x128xf32>
    %346 = linalg.generic {indexing_maps = [#map3, #map1, #map3], iterator_types = ["parallel", "parallel", "parallel"]} ins(%344, %cst_222 : tensor<1x384x128xf32>, tensor<1x128xf32>) outs(%345 : tensor<1x384x128xf32>) {
    ^bb0(%in: f32, %in_2787: f32, %out: f32):
      %4421 = arith.mulf %in, %in_2787 : f32
      linalg.yield %4421 : f32
    } -> tensor<1x384x128xf32>
    %347 = tensor.empty() : tensor<1x384x128xf32>
    %348 = linalg.generic {indexing_maps = [#map3, #map1, #map3], iterator_types = ["parallel", "parallel", "parallel"]} ins(%346, %cst_221 : tensor<1x384x128xf32>, tensor<1x128xf32>) outs(%347 : tensor<1x384x128xf32>) {
    ^bb0(%in: f32, %in_2787: f32, %out: f32):
      %4421 = arith.addf %in, %in_2787 : f32
      linalg.yield %4421 : f32
    } -> tensor<1x384x128xf32>
    %collapsed_1099 = tensor.collapse_shape %344 [[0, 1], [2]] : tensor<1x384x128xf32> into tensor<384x128xf32>
    %349 = tensor.empty() : tensor<384x512xf32>
    %350 = linalg.fill ins(%cst_607 : f32) outs(%349 : tensor<384x512xf32>) -> tensor<384x512xf32>
    %351 = tensor.empty() : tensor<384x512xf32>
    %352 = linalg.matmul ins(%collapsed_1099, %cst_271 : tensor<384x128xf32>, tensor<128x512xf32>) outs(%350 : tensor<384x512xf32>) -> tensor<384x512xf32>
    %353 = linalg.generic {indexing_maps = [#map6, #map, #map], iterator_types = ["parallel", "parallel"]} ins(%cst_638, %352 : tensor<512xf32>, tensor<384x512xf32>) outs(%351 : tensor<384x512xf32>) {
    ^bb0(%in: f32, %in_2787: f32, %out: f32):
      %4421 = arith.addf %in, %in_2787 : f32
      linalg.yield %4421 : f32
    } -> tensor<384x512xf32>
    %expanded_1100 = tensor.expand_shape %353 [[0, 1], [2]] : tensor<384x512xf32> into tensor<1x384x512xf32>
    %354 = tensor.empty() : tensor<1x384x512xf32>
    %355 = linalg.generic {indexing_maps = [#map3, #map3], iterator_types = ["parallel", "parallel", "parallel"]} ins(%expanded_1100 : tensor<1x384x512xf32>) outs(%354 : tensor<1x384x512xf32>) {
    ^bb0(%in: f32, %out: f32):
      %4421 = arith.minf %in, %cst_239 : f32
      %4422 = arith.maxf %4421, %cst_607 : f32
      linalg.yield %4422 : f32
    } -> tensor<1x384x512xf32>
    %collapsed_1101 = tensor.collapse_shape %355 [[0, 1], [2]] : tensor<1x384x512xf32> into tensor<384x512xf32>
    %356 = tensor.empty() : tensor<384x128xf32>
    %357 = linalg.fill ins(%cst_607 : f32) outs(%356 : tensor<384x128xf32>) -> tensor<384x128xf32>
    %358 = tensor.empty() : tensor<384x128xf32>
    %359 = linalg.matmul ins(%collapsed_1101, %cst_272 : tensor<384x512xf32>, tensor<512x128xf32>) outs(%357 : tensor<384x128xf32>) -> tensor<384x128xf32>
    %360 = linalg.generic {indexing_maps = [#map6, #map, #map], iterator_types = ["parallel", "parallel"]} ins(%cst_639, %359 : tensor<128xf32>, tensor<384x128xf32>) outs(%358 : tensor<384x128xf32>) {
    ^bb0(%in: f32, %in_2787: f32, %out: f32):
      %4421 = arith.addf %in, %in_2787 : f32
      linalg.yield %4421 : f32
    } -> tensor<384x128xf32>
    %expanded_1102 = tensor.expand_shape %360 [[0, 1], [2]] : tensor<384x128xf32> into tensor<1x384x128xf32>
    %361 = tensor.empty() : tensor<1x384x128xf32>
    %362 = linalg.generic {indexing_maps = [#map3, #map3, #map3], iterator_types = ["parallel", "parallel", "parallel"]} ins(%expanded_1102, %348 : tensor<1x384x128xf32>, tensor<1x384x128xf32>) outs(%361 : tensor<1x384x128xf32>) {
    ^bb0(%in: f32, %in_2787: f32, %out: f32):
      %4421 = arith.addf %in, %in_2787 : f32
      linalg.yield %4421 : f32
    } -> tensor<1x384x128xf32>
    %363 = tensor.empty() : tensor<1x384x128xf32>
    %364 = linalg.generic {indexing_maps = [#map3, #map1, #map3], iterator_types = ["parallel", "parallel", "parallel"]} ins(%362, %cst_220 : tensor<1x384x128xf32>, tensor<1x128xf32>) outs(%363 : tensor<1x384x128xf32>) {
    ^bb0(%in: f32, %in_2787: f32, %out: f32):
      %4421 = arith.mulf %in, %in_2787 : f32
      linalg.yield %4421 : f32
    } -> tensor<1x384x128xf32>
    %365 = tensor.empty() : tensor<1x384x128xf32>
    %366 = linalg.generic {indexing_maps = [#map3, #map1, #map3], iterator_types = ["parallel", "parallel", "parallel"]} ins(%364, %cst_219 : tensor<1x384x128xf32>, tensor<1x128xf32>) outs(%365 : tensor<1x384x128xf32>) {
    ^bb0(%in: f32, %in_2787: f32, %out: f32):
      %4421 = arith.addf %in, %in_2787 : f32
      linalg.yield %4421 : f32
    } -> tensor<1x384x128xf32>
    %collapsed_1103 = tensor.collapse_shape %362 [[0, 1], [2]] : tensor<1x384x128xf32> into tensor<384x128xf32>
    %367 = tensor.empty() : tensor<384x512xf32>
    %368 = linalg.fill ins(%cst_607 : f32) outs(%367 : tensor<384x512xf32>) -> tensor<384x512xf32>
    %369 = tensor.empty() : tensor<384x512xf32>
    %370 = linalg.matmul ins(%collapsed_1103, %cst_273 : tensor<384x128xf32>, tensor<128x512xf32>) outs(%368 : tensor<384x512xf32>) -> tensor<384x512xf32>
    %371 = linalg.generic {indexing_maps = [#map6, #map, #map], iterator_types = ["parallel", "parallel"]} ins(%cst_640, %370 : tensor<512xf32>, tensor<384x512xf32>) outs(%369 : tensor<384x512xf32>) {
    ^bb0(%in: f32, %in_2787: f32, %out: f32):
      %4421 = arith.addf %in, %in_2787 : f32
      linalg.yield %4421 : f32
    } -> tensor<384x512xf32>
    %expanded_1104 = tensor.expand_shape %371 [[0, 1], [2]] : tensor<384x512xf32> into tensor<1x384x512xf32>
    %372 = tensor.empty() : tensor<1x384x512xf32>
    %373 = linalg.generic {indexing_maps = [#map3, #map3], iterator_types = ["parallel", "parallel", "parallel"]} ins(%expanded_1104 : tensor<1x384x512xf32>) outs(%372 : tensor<1x384x512xf32>) {
    ^bb0(%in: f32, %out: f32):
      %4421 = arith.minf %in, %cst_239 : f32
…
    %4188 = tensor.empty() : tensor<1x384x128xf32>
    %4189 = linalg.generic {indexing_maps = [#map3, #map1, #map3], iterator_types = ["parallel", "parallel", "parallel"]} ins(%4187, %cst_12 : tensor<1x384x128xf32>, tensor<1x128xf32>) outs(%4188 : tensor<1x384x128xf32>) {
    ^bb0(%in: f32, %in_2787: f32, %out: f32):
      %4421 = arith.mulf %in, %in_2787 : f32
      linalg.yield %4421 : f32
    } -> tensor<1x384x128xf32>
    %4190 = tensor.empty() : tensor<1x384x128xf32>
    %4191 = linalg.generic {indexing_maps = [#map3, #map1, #map3], iterator_types = ["parallel", "parallel", "parallel"]} ins(%4189, %cst_11 : tensor<1x384x128xf32>, tensor<1x128xf32>) outs(%4190 : tensor<1x384x128xf32>) {
    ^bb0(%in: f32, %in_2787: f32, %out: f32):
      %4421 = arith.addf %in, %in_2787 : f32
      linalg.yield %4421 : f32
    } -> tensor<1x384x128xf32>
    %collapsed_2695 = tensor.collapse_shape %4187 [[0, 1], [2]] : tensor<1x384x128xf32> into tensor<384x128xf32>
    %4192 = tensor.empty() : tensor<384x512xf32>
    %4193 = linalg.fill ins(%cst_607 : f32) outs(%4192 : tensor<384x512xf32>) -> tensor<384x512xf32>
    %4194 = tensor.empty() : tensor<384x512xf32>
    %4195 = linalg.matmul ins(%collapsed_2695, %cst_586 : tensor<384x128xf32>, tensor<128x512xf32>) outs(%4193 : tensor<384x512xf32>) -> tensor<384x512xf32>
    %4196 = linalg.generic {indexing_maps = [#map6, #map, #map], iterator_types = ["parallel", "parallel"]} ins(%cst_932, %4195 : tensor<512xf32>, tensor<384x512xf32>) outs(%4194 : tensor<384x512xf32>) {
    ^bb0(%in: f32, %in_2787: f32, %out: f32):
      %4421 = arith.addf %in, %in_2787 : f32
      linalg.yield %4421 : f32
    } -> tensor<384x512xf32>
    %expanded_2696 = tensor.expand_shape %4196 [[0, 1], [2]] : tensor<384x512xf32> into tensor<1x384x512xf32>
    %4197 = tensor.empty() : tensor<1x384x512xf32>
    %4198 = linalg.generic {indexing_maps = [#map3, #map3], iterator_types = ["parallel", "parallel", "parallel"]} ins(%expanded_2696 : tensor<1x384x512xf32>) outs(%4197 : tensor<1x384x512xf32>) {
    ^bb0(%in: f32, %out: f32):
      %4421 = arith.minf %in, %cst_239 : f32
      %4422 = arith.maxf %4421, %cst_607 : f32
      linalg.yield %4422 : f32
    } -> tensor<1x384x512xf32>
    %collapsed_2697 = tensor.collapse_shape %4198 [[0, 1], [2]] : tensor<1x384x512xf32> into tensor<384x512xf32>
    %4199 = tensor.empty() : tensor<384x128xf32>
    %4200 = linalg.fill ins(%cst_607 : f32) outs(%4199 : tensor<384x128xf32>) -> tensor<384x128xf32>
    %4201 = tensor.empty() : tensor<384x128xf32>
    %4202 = linalg.matmul ins(%collapsed_2697, %cst_587 : tensor<384x512xf32>, tensor<512x128xf32>) outs(%4200 : tensor<384x128xf32>) -> tensor<384x128xf32>
    %4203 = linalg.generic {indexing_maps = [#map6, #map, #map], iterator_types = ["parallel", "parallel"]} ins(%cst_933, %4202 : tensor<128xf32>, tensor<384x128xf32>) outs(%4201 : tensor<384x128xf32>) {
    ^bb0(%in: f32, %in_2787: f32, %out: f32):
      %4421 = arith.addf %in, %in_2787 : f32
      linalg.yield %4421 : f32
    } -> tensor<384x128xf32>
    %expanded_2698 = tensor.expand_shape %4203 [[0, 1], [2]] : tensor<384x128xf32> into tensor<1x384x128xf32>
    %4204 = tensor.empty() : tensor<1x384x128xf32>
    %4205 = linalg.generic {indexing_maps = [#map3, #map3, #map3], iterator_types = ["parallel", "parallel", "parallel"]} ins(%expanded_2698, %4191 : tensor<1x384x128xf32>, tensor<1x384x128xf32>) outs(%4204 : tensor<1x384x128xf32>) {
    ^bb0(%in: f32, %in_2787: f32, %out: f32):
      %4421 = arith.addf %in, %in_2787 : f32
      linalg.yield %4421 : f32
    } -> tensor<1x384x128xf32>
    %4206 = tensor.empty() : tensor<1x384x128xf32>
    %4207 = linalg.generic {indexing_maps = [#map3, #map1, #map3], iterator_types = ["parallel", "parallel", "parallel"]} ins(%4205, %cst_10 : tensor<1x384x128xf32>, tensor<1x128xf32>) outs(%4206 : tensor<1x384x128xf32>) {
    ^bb0(%in: f32, %in_2787: f32, %out: f32):
      %4421 = arith.mulf %in, %in_2787 : f32
      linalg.yield %4421 : f32
    } -> tensor<1x384x128xf32>
    %4208 = tensor.empty() : tensor<1x384x128xf32>
    %4209 = linalg.generic {indexing_maps = [#map3, #map1, #map3], iterator_types = ["parallel", "parallel", "parallel"]} ins(%4207, %cst_9 : tensor<1x384x128xf32>, tensor<1x128xf32>) outs(%4208 : tensor<1x384x128xf32>) {
    ^bb0(%in: f32, %in_2787: f32, %out: f32):
      %4421 = arith.addf %in, %in_2787 : f32
      linalg.yield %4421 : f32
    } -> tensor<1x384x128xf32>
    %collapsed_2699 = tensor.collapse_shape %4205 [[0, 1], [2]] : tensor<1x384x128xf32> into tensor<384x128xf32>
    %4210 = tensor.empty() : tensor<384x512xf32>
    %4211 = linalg.fill ins(%cst_607 : f32) outs(%4210 : tensor<384x512xf32>) -> tensor<384x512xf32>
    %4212 = tensor.empty() : tensor<384x512xf32>
    %4213 = linalg.matmul ins(%collapsed_2699, %cst_588 : tensor<384x128xf32>, tensor<128x512xf32>) outs(%4211 : tensor<384x512xf32>) -> tensor<384x512xf32>
    %4214 = linalg.generic {indexing_maps = [#map6, #map, #map], iterator_types = ["parallel", "parallel"]} ins(%cst_934, %4213 : tensor<512xf32>, tensor<384x512xf32>) outs(%4212 : tensor<384x512xf32>) {
    ^bb0(%in: f32, %in_2787: f32, %out: f32):
      %4421 = arith.addf %in, %in_2787 : f32
      linalg.yield %4421 : f32
    } -> tensor<384x512xf32>
    %expanded_2700 = tensor.expand_shape %4214 [[0, 1], [2]] : tensor<384x512xf32> into tensor<1x384x512xf32>
    %4215 = tensor.empty() : tensor<1x384x512xf32>
    %4216 = linalg.generic {indexing_maps = [#map3, #map3], iterator_types = ["parallel", "parallel", "parallel"]} ins(%expanded_2700 : tensor<1x384x512xf32>) outs(%4215 : tensor<1x384x512xf32>) {
    ^bb0(%in: f32, %out: f32):
      %4421 = arith.minf %in, %cst_239 : f32
      %4422 = arith.maxf %4421, %cst_607 : f32
      linalg.yield %4422 : f32
    } -> tensor<1x384x512xf32>
    %collapsed_2701 = tensor.collapse_shape %4216 [[0, 1], [2]] : tensor<1x384x512xf32> into tensor<384x512xf32>
    %4217 = tensor.empty() : tensor<384x128xf32>
    %4218 = linalg.fill ins(%cst_607 : f32) outs(%4217 : tensor<384x128xf32>) -> tensor<384x128xf32>
    %4219 = tensor.empty() : tensor<384x128xf32>
    %4220 = linalg.matmul ins(%collapsed_2701, %cst_589 : tensor<384x512xf32>, tensor<512x128xf32>) outs(%4218 : tensor<384x128xf32>) -> tensor<384x128xf32>
    %4221 = linalg.generic {indexing_maps = [#map6, #map, #map], iterator_types = ["parallel", "parallel"]} ins(%cst_935, %4220 : tensor<128xf32>, tensor<384x128xf32>) outs(%4219 : tensor<384x128xf32>) {
    ^bb0(%in: f32, %in_2787: f32, %out: f32):
      %4421 = arith.addf %in, %in_2787 : f32
      linalg.yield %4421 : f32
    } -> tensor<384x128xf32>
    %expanded_2702 = tensor.expand_shape %4221 [[0, 1], [2]] : tensor<384x128xf32> into tensor<1x384x128xf32>
    %4222 = tensor.empty() : tensor<1x384x128xf32>
    %4223 = linalg.generic {indexing_maps = [#map3, #map3, #map3], iterator_types = ["parallel", "parallel", "parallel"]} ins(%expanded_2702, %4209 : tensor<1x384x128xf32>, tensor<1x384x128xf32>) outs(%4222 : tensor<1x384x128xf32>) {
    ^bb0(%in: f32, %in_2787: f32, %out: f32):
      %4421 = arith.addf %in, %in_2787 : f32
      linalg.yield %4421 : f32
    } -> tensor<1x384x128xf32>
    %collapsed_2703 = tensor.collapse_shape %4223 [[0, 1], [2]] : tensor<1x384x128xf32> into tensor<384x128xf32>
    %4224 = tensor.empty() : tensor<384x512xf32>
    %4225 = linalg.fill ins(%cst_607 : f32) outs(%4224 : tensor<384x512xf32>) -> tensor<384x512xf32>
    %4226 = tensor.empty() : tensor<384x512xf32>
    %4227 = linalg.matmul ins(%collapsed_2703, %cst_590 : tensor<384x128xf32>, tensor<128x512xf32>) outs(%4225 : tensor<384x512xf32>) -> tensor<384x512xf32>
    %4228 = linalg.generic {indexing_maps = [#map6, #map, #map], iterator_types = ["parallel", "parallel"]} ins(%cst_936, %4227 : tensor<512xf32>, tensor<384x512xf32>) outs(%4226 : tensor<384x512xf32>) {
    ^bb0(%in: f32, %in_2787: f32, %out: f32):
      %4421 = arith.addf %in, %in_2787 : f32
      linalg.yield %4421 : f32
    } -> tensor<384x512xf32>
    %expanded_2704 = tensor.expand_shape %4228 [[0, 1], [2]] : tensor<384x512xf32> into tensor<1x384x512xf32>
    %4229 = tensor.empty() : tensor<1x384x512xf32>
    %4230 = linalg.generic {indexing_maps = [#map3, #map3, #map3], iterator_types = ["parallel", "parallel", "parallel"]} ins(%expanded_2704, %4051 : tensor<1x384x512xf32>, tensor<1x384x512xf32>) outs(%4229 : tensor<1x384x512xf32>) {
    ^bb0(%in: f32, %in_2787: f32, %out: f32):
      %4421 = arith.addf %in, %in_2787 : f32
      linalg.yield %4421 : f32
    } -> tensor<1x384x512xf32>
    %4231 = tensor.empty() : tensor<1x384x512xf32>
    %4232 = linalg.generic {indexing_maps = [#map3, #map1, #map3], iterator_types = ["parallel", "parallel", "parallel"]} ins(%4230, %cst_8 : tensor<1x384x512xf32>, tensor<1x512xf32>) outs(%4231 : tensor<1x384x512xf32>) {
    ^bb0(%in: f32, %in_2787: f32, %out: f32):
      %4421 = arith.mulf %in, %in_2787 : f32
      linalg.yield %4421 : f32
    } -> tensor<1x384x512xf32>
    %4233 = tensor.empty() : tensor<1x384x512xf32>
    %4234 = linalg.generic {indexing_maps = [#map3, #map1, #map3], iterator_types = ["parallel", "parallel", "parallel"]} ins(%4232, %cst_7 : tensor<1x384x512xf32>, tensor<1x512xf32>) outs(%4233 : tensor<1x384x512xf32>) {
    ^bb0(%in: f32, %in_2787: f32, %out: f32):
      %4421 = arith.addf %in, %in_2787 : f32
      linalg.yield %4421 : f32
    } -> tensor<1x384x512xf32>
    %collapsed_2705 = tensor.collapse_shape %4230 [[0, 1], [2]] : tensor<1x384x512xf32> into tensor<384x512xf32>
    %4235 = tensor.empty() : tensor<384x128xf32>
    %4236 = linalg.fill ins(%cst_607 : f32) outs(%4235 : tensor<384x128xf32>) -> tensor<384x128xf32>
    %4237 = tensor.empty() : tensor<384x128xf32>
    %4238 = linalg.matmul ins(%collapsed_2705, %cst_591 : tensor<384x512xf32>, tensor<512x128xf32>) outs(%4236 : tensor<384x128xf32>) -> tensor<384x128xf32>
    %4239 = linalg.generic {indexing_maps = [#map6, #map, #map], iterator_types = ["parallel", "parallel"]} ins(%cst_937, %4238 : tensor<128xf32>, tensor<384x128xf32>) outs(%4237 : tensor<384x128xf32>) {
    ^bb0(%in: f32, %in_2787: f32, %out: f32):
      %4421 = arith.addf %in, %in_2787 : f32
      linalg.yield %4421 : f32
    } -> tensor<384x128xf32>
    %expanded_2706 = tensor.expand_shape %4239 [[0, 1], [2, 3]] : tensor<384x128xf32> into tensor<1x384x4x32xf32>
    %collapsed_2707 = tensor.collapse_shape %4230 [[0, 1], [2]] : tensor<1x384x512xf32> into tensor<384x512xf32>
    %4240 = tensor.empty() : tensor<384x128xf32>
    %4241 = linalg.fill ins(%cst_607 : f32) outs(%4240 : tensor<384x128xf32>) -> tensor<384x128xf32>
    %4242 = tensor.empty() : tensor<384x128xf32>
    %4243 = linalg.matmul ins(%collapsed_2707, %cst_592 : tensor<384x512xf32>, tensor<512x128xf32>) outs(%4241 : tensor<384x128xf32>) -> tensor<384x128xf32>
    %4244 = linalg.generic {indexing_maps = [#map6, #map, #map], iterator_types = ["parallel", "parallel"]} ins(%cst_938, %4243 : tensor<128xf32>, tensor<384x128xf32>) outs(%4242 : tensor<384x128xf32>) {
    ^bb0(%in: f32, %in_2787: f32, %out: f32):
      %4421 = arith.addf %in, %in_2787 : f32
      linalg.yield %4421 : f32
    } -> tensor<384x128xf32>
    %expanded_2708 = tensor.expand_shape %4244 [[0, 1], [2]] : tensor<384x128xf32> into tensor<1x384x128xf32>
    %collapsed_2709 = tensor.collapse_shape %4234 [[0, 1], [2]] : tensor<1x384x512xf32> into tensor<384x512xf32>
    %4245 = tensor.empty() : tensor<384x128xf32>
    %4246 = linalg.fill ins(%cst_607 : f32) outs(%4245 : tensor<384x128xf32>) -> tensor<384x128xf32>
    %4247 = tensor.empty() : tensor<384x128xf32>
    %4248 = linalg.matmul ins(%collapsed_2709, %cst_593 : tensor<384x512xf32>, tensor<512x128xf32>) outs(%4246 : tensor<384x128xf32>) -> tensor<384x128xf32>
    %4249 = linalg.generic {indexing_maps = [#map6, #map, #map], iterator_types = ["parallel", "parallel"]} ins(%cst_612, %4248 : tensor<128xf32>, tensor<384x128xf32>) outs(%4247 : tensor<384x128xf32>) {
    ^bb0(%in: f32, %in_2787: f32, %out: f32):
      %4421 = arith.addf %in, %in_2787 : f32
      linalg.yield %4421 : f32
    } -> tensor<384x128xf32>
    %4250 = tensor.empty() : tensor<384x128xf32>
    %4251 = linalg.fill ins(%cst_607 : f32) outs(%4250 : tensor<384x128xf32>) -> tensor<384x128xf32>
    %4252 = tensor.empty() : tensor<384x128xf32>
    %4253 = linalg.matmul ins(%4249, %cst_594 : tensor<384x128xf32>, tensor<128x128xf32>) outs(%4251 : tensor<384x128xf32>) -> tensor<384x128xf32>
    %4254 = linalg.generic {indexing_maps = [#map6, #map, #map], iterator_types = ["parallel", "parallel"]} ins(%cst_939, %4253 : tensor<128xf32>, tensor<384x128xf32>) outs(%4252 : tensor<384x128xf32>) {
    ^bb0(%in: f32, %in_2787: f32, %out: f32):
      %4421 = arith.addf %in, %in_2787 : f32
      linalg.yield %4421 : f32
    } -> tensor<384x128xf32>
    %expanded_2710 = tensor.expand_shape %4254 [[0, 1], [2, 3]] : tensor<384x128xf32> into tensor<1x384x4x32xf32>
    %4255 = tensor.empty() : tensor<384x128xf32>
    %4256 = linalg.fill ins(%cst_607 : f32) outs(%4255 : tensor<384x128xf32>) -> tensor<384x128xf32>
    %4257 = tensor.empty() : tensor<384x128xf32>
    %4258 = linalg.matmul ins(%4249, %cst_595 : tensor<384x128xf32>, tensor<128x128xf32>) outs(%4256 : tensor<384x128xf32>) -> tensor<384x128xf32>
    %4259 = linalg.generic {indexing_maps = [#map6, #map, #map], iterator_types = ["parallel", "parallel"]} ins(%cst_940, %4258 : tensor<128xf32>, tensor<384x128xf32>) outs(%4257 : tensor<384x128xf32>) {
    ^bb0(%in: f32, %in_2787: f32, %out: f32):
      %4421 = arith.addf %in, %in_2787 : f32
      linalg.yield %4421 : f32
    } -> tensor<384x128xf32>
    %expanded_2711 = tensor.expand_shape %4259 [[0, 1], [2, 3]] : tensor<384x128xf32> into tensor<1x384x4x32xf32>
    %4260 = tensor.empty() : tensor<1x4x384x32xf32>
    %4261 = linalg.generic {indexing_maps = [#map7, #map5], iterator_types = ["parallel", "parallel", "parallel", "parallel"]} ins(%expanded_2710 : tensor<1x384x4x32xf32>) outs(%4260 : tensor<1x4x384x32xf32>) {
    ^bb0(%in: f32, %out: f32):
      linalg.yield %in : f32
    } -> tensor<1x4x384x32xf32>
    %4262 = tensor.empty() : tensor<1x4x32x384xf32>
    %4263 = linalg.generic {indexing_maps = [#map8, #map5], iterator_types = ["parallel", "parallel", "parallel", "parallel"]} ins(%expanded_2711 : tensor<1x384x4x32xf32>) outs(%4262 : tensor<1x4x32x384xf32>) {
    ^bb0(%in: f32, %out: f32):
      linalg.yield %in : f32
    } -> tensor<1x4x32x384xf32>
    %collapsed_2712 = tensor.collapse_shape %4261 [[0, 1], [2], [3]] : tensor<1x4x384x32xf32> into tensor<4x384x32xf32>
    %extracted_slice_2713 = tensor.extract_slice %collapsed_2712[0, 0, 0] [1, 384, 32] [1, 1, 1] : tensor<4x384x32xf32> to tensor<1x384x32xf32>
    %extracted_slice_2714 = tensor.extract_slice %collapsed_2712[1, 0, 0] [1, 384, 32] [1, 1, 1] : tensor<4x384x32xf32> to tensor<1x384x32xf32>
    %extracted_slice_2715 = tensor.extract_slice %collapsed_2712[2, 0, 0] [1, 384, 32] [1, 1, 1] : tensor<4x384x32xf32> to tensor<1x384x32xf32>
    %extracted_slice_2716 = tensor.extract_slice %collapsed_2712[3, 0, 0] [1, 384, 32] [1, 1, 1] : tensor<4x384x32xf32> to tensor<1x384x32xf32>
    %collapsed_2717 = tensor.collapse_shape %4263 [[0, 1], [2], [3]] : tensor<1x4x32x384xf32> into tensor<4x32x384xf32>
    %extracted_slice_2718 = tensor.extract_slice %collapsed_2717[0, 0, 0] [1, 32, 384] [1, 1, 1] : tensor<4x32x384xf32> to tensor<1x32x384xf32>
    %extracted_slice_2719 = tensor.extract_slice %collapsed_2717[1, 0, 0] [1, 32, 384] [1, 1, 1] : tensor<4x32x384xf32> to tensor<1x32x384xf32>
    %extracted_slice_2720 = tensor.extract_slice %collapsed_2717[2, 0, 0] [1, 32, 384] [1, 1, 1] : tensor<4x32x384xf32> to tensor<1x32x384xf32>
    %extracted_slice_2721 = tensor.extract_slice %collapsed_2717[3, 0, 0] [1, 32, 384] [1, 1, 1] : tensor<4x32x384xf32> to tensor<1x32x384xf32>
    %collapsed_2722 = tensor.collapse_shape %extracted_slice_2718 [[0, 1], [2]] : tensor<1x32x384xf32> into tensor<32x384xf32>
    %collapsed_2723 = tensor.collapse_shape %extracted_slice_2719 [[0, 1], [2]] : tensor<1x32x384xf32> into tensor<32x384xf32>
    %collapsed_2724 = tensor.collapse_shape %extracted_slice_2720 [[0, 1], [2]] : tensor<1x32x384xf32> into tensor<32x384xf32>
    %collapsed_2725 = tensor.collapse_shape %extracted_slice_2721 [[0, 1], [2]] : tensor<1x32x384xf32> into tensor<32x384xf32>
    %collapsed_2726 = tensor.collapse_shape %extracted_slice_2713 [[0, 1], [2]] : tensor<1x384x32xf32> into tensor<384x32xf32>
    %4264 = tensor.empty() : tensor<384x384xf32>
    %4265 = linalg.fill ins(%cst_607 : f32) outs(%4264 : tensor<384x384xf32>) -> tensor<384x384xf32>
    %4266 = tensor.empty() : tensor<384x384xf32>
    %4267 = linalg.matmul ins(%collapsed_2726, %collapsed_2722 : tensor<384x32xf32>, tensor<32x384xf32>) outs(%4265 : tensor<384x384xf32>) -> tensor<384x384xf32>
    %4268 = linalg.generic {indexing_maps = [#map6, #map, #map], iterator_types = ["parallel", "parallel"]} ins(%cst_611, %4267 : tensor<384xf32>, tensor<384x384xf32>) outs(%4266 : tensor<384x384xf32>) {
    ^bb0(%in: f32, %in_2787: f32, %out: f32):
      %4421 = arith.addf %in, %in_2787 : f32
      linalg.yield %4421 : f32
    } -> tensor<384x384xf32>
    %collapsed_2727 = tensor.collapse_shape %extracted_slice_2714 [[0, 1], [2]] : tensor<1x384x32xf32> into tensor<384x32xf32>
    %4269 = tensor.empty() : tensor<384x384xf32>
    %4270 = linalg.fill ins(%cst_607 : f32) outs(%4269 : tensor<384x384xf32>) -> tensor<384x384xf32>
    %4271 = tensor.empty() : tensor<384x384xf32>
    %4272 = linalg.matmul ins(%collapsed_2727, %collapsed_2723 : tensor<384x32xf32>, tensor<32x384xf32>) outs(%4270 : tensor<384x384xf32>) -> tensor<384x384xf32>
    %4273 = linalg.generic {indexing_maps = [#map6, #map, #map], iterator_types = ["parallel", "parallel"]} ins(%cst_611, %4272 : tensor<384xf32>, tensor<384x384xf32>) outs(%4271 : tensor<384x384xf32>) {
    ^bb0(%in: f32, %in_2787: f32, %out: f32):
      %4421 = arith.addf %in, %in_2787 : f32
      linalg.yield %4421 : f32
    } -> tensor<384x384xf32>
    %collapsed_2728 = tensor.collapse_shape %extracted_slice_2715 [[0, 1], [2]] : tensor<1x384x32xf32> into tensor<384x32xf32>
    %4274 = tensor.empty() : tensor<384x384xf32>
    %4275 = linalg.fill ins(%cst_607 : f32) outs(%4274 : tensor<384x384xf32>) -> tensor<384x384xf32>
    %4276 = tensor.empty() : tensor<384x384xf32>
    %4277 = linalg.matmul ins(%collapsed_2728, %collapsed_2724 : tensor<384x32xf32>, tensor<32x384xf32>) outs(%4275 : tensor<384x384xf32>) -> tensor<384x384xf32>
    %4278 = linalg.generic {indexing_maps = [#map6, #map, #map], iterator_types = ["parallel", "parallel"]} ins(%cst_611, %4277 : tensor<384xf32>, tensor<384x384xf32>) outs(%4276 : tensor<384x384xf32>) {
    ^bb0(%in: f32, %in_2787: f32, %out: f32):
      %4421 = arith.addf %in, %in_2787 : f32
      linalg.yield %4421 : f32
    } -> tensor<384x384xf32>
    %collapsed_2729 = tensor.collapse_shape %extracted_slice_2716 [[0, 1], [2]] : tensor<1x384x32xf32> into tensor<384x32xf32>
    %4279 = tensor.empty() : tensor<384x384xf32>
    %4280 = linalg.fill ins(%cst_607 : f32) outs(%4279 : tensor<384x384xf32>) -> tensor<384x384xf32>
    %4281 = tensor.empty() : tensor<384x384xf32>
    %4282 = linalg.matmul ins(%collapsed_2729, %collapsed_2725 : tensor<384x32xf32>, tensor<32x384xf32>) outs(%4280 : tensor<384x384xf32>) -> tensor<384x384xf32>
    %4283 = linalg.generic {indexing_maps = [#map6, #map, #map], iterator_types = ["parallel", "parallel"]} ins(%cst_611, %4282 : tensor<384xf32>, tensor<384x384xf32>) outs(%4281 : tensor<384x384xf32>) {
    ^bb0(%in: f32, %in_2787: f32, %out: f32):
      %4421 = arith.addf %in, %in_2787 : f32
      linalg.yield %4421 : f32
    } -> tensor<384x384xf32>
    %4284 = tensor.empty() : tensor<1536x384xf32>
    %inserted_slice_2730 = tensor.insert_slice %4268 into %4284[0, 0] [384, 384] [1, 1] : tensor<384x384xf32> into tensor<1536x384xf32>
    %inserted_slice_2731 = tensor.insert_slice %4273 into %inserted_slice_2730[384, 0] [384, 384] [1, 1] : tensor<384x384xf32> into tensor<1536x384xf32>
    %inserted_slice_2732 = tensor.insert_slice %4278 into %inserted_slice_2731[768, 0] [384, 384] [1, 1] : tensor<384x384xf32> into tensor<1536x384xf32>
    %inserted_slice_2733 = tensor.insert_slice %4283 into %inserted_slice_2732[1152, 0] [384, 384] [1, 1] : tensor<384x384xf32> into tensor<1536x384xf32>
    %expanded_2734 = tensor.expand_shape %inserted_slice_2733 [[0, 1, 2], [3]] : tensor<1536x384xf32> into tensor<1x4x384x384xf32>
    %4285 = tensor.empty() : tensor<1x4x384x384xf32>
    %4286 = linalg.generic {indexing_maps = [#map9, #map5], iterator_types = ["parallel", "parallel", "parallel", "parallel"]} ins(%expanded_2734 : tensor<1x4x384x384xf32>) outs(%4285 : tensor<1x4x384x384xf32>) {
    ^bb0(%in: f32, %out: f32):
      linalg.yield %in : f32
    } -> tensor<1x4x384x384xf32>
    %4287 = tensor.empty() : tensor<1x4x384x384xf32>
    %collapsed_2735 = tensor.collapse_shape %7 [[0, 1], [2], [3]] : tensor<1x1x384x384xf32> into tensor<1x384x384xf32>
    %4288 = linalg.generic {indexing_maps = [#map5, #map10, #map5], iterator_types = ["parallel", "parallel", "parallel", "parallel"]} ins(%4286, %collapsed_2735 : tensor<1x4x384x384xf32>, tensor<1x384x384xf32>) outs(%4287 : tensor<1x4x384x384xf32>) {
    ^bb0(%in: f32, %in_2787: f32, %out: f32):
      %4421 = arith.addf %in, %in_2787 : f32
      linalg.yield %4421 : f32
    } -> tensor<1x4x384x384xf32>
    %4289 = tensor.empty() : tensor<1x4x384xf32>
    %4290 = linalg.fill ins(%cst_241 : f32) outs(%4289 : tensor<1x4x384xf32>) -> tensor<1x4x384xf32>
    %4291 = linalg.generic {indexing_maps = [#map5, #map11], iterator_types = ["parallel", "parallel", "parallel", "reduction"]} ins(%4288 : tensor<1x4x384x384xf32>) outs(%4290 : tensor<1x4x384xf32>) {
    ^bb0(%in: f32, %out: f32):
      %4421 = arith.maxf %in, %out : f32
      linalg.yield %4421 : f32
    } -> tensor<1x4x384xf32>
    %4292 = tensor.empty() : tensor<1x4x384x384xf32>
    %4293 = linalg.generic {indexing_maps = [#map5, #map11, #map5], iterator_types = ["parallel", "parallel", "parallel", "parallel"]} ins(%4288, %4291 : tensor<1x4x384x384xf32>, tensor<1x4x384xf32>) outs(%4292 : tensor<1x4x384x384xf32>) {
    ^bb0(%in: f32, %in_2787: f32, %out: f32):
      %4421 = arith.subf %in, %in_2787 : f32
      linalg.yield %4421 : f32
    } -> tensor<1x4x384x384xf32>
    %4294 = tensor.empty() : tensor<1x4x384x384xf32>
    %4295 = linalg.generic {indexing_maps = [#map5, #map5], iterator_types = ["parallel", "parallel", "parallel", "parallel"]} ins(%4293 : tensor<1x4x384x384xf32>) outs(%4294 : tensor<1x4x384x384xf32>) {
    ^bb0(%in: f32, %out: f32):
      %4421 = math.exp %in : f32
      linalg.yield %4421 : f32
    } -> tensor<1x4x384x384xf32>
    %4296 = tensor.empty() : tensor<1x4x384xf32>
    %4297 = linalg.fill ins(%cst_607 : f32) outs(%4296 : tensor<1x4x384xf32>) -> tensor<1x4x384xf32>
    %4298 = linalg.generic {indexing_maps = [#map5, #map11], iterator_types = ["parallel", "parallel", "parallel", "reduction"]} ins(%4295 : tensor<1x4x384x384xf32>) outs(%4297 : tensor<1x4x384xf32>) {
    ^bb0(%in: f32, %out: f32):
      %4421 = arith.addf %in, %out : f32
      linalg.yield %4421 : f32
    } -> tensor<1x4x384xf32>
    %expanded_2736 = tensor.expand_shape %4298 [[0], [1], [2, 3]] : tensor<1x4x384xf32> into tensor<1x4x384x1xf32>
    %4299 = tensor.empty() : tensor<1x4x384x1xf32>
    %4300 = linalg.generic {indexing_maps = [#map5, #map5], iterator_types = ["parallel", "parallel", "parallel", "parallel"]} ins(%expanded_2736 : tensor<1x4x384x1xf32>) outs(%4299 : tensor<1x4x384x1xf32>) {
    ^bb0(%in: f32, %out: f32):
      %4421 = arith.divf %cst_240, %in : f32
      linalg.yield %4421 : f32
    } -> tensor<1x4x384x1xf32>
    %4301 = tensor.empty() : tensor<1x4x384x384xf32>
    %collapsed_2737 = tensor.collapse_shape %4300 [[0], [1], [2, 3]] : tensor<1x4x384x1xf32> into tensor<1x4x384xf32>
    %4302 = linalg.generic {indexing_maps = [#map5, #map11, #map5], iterator_types = ["parallel", "parallel", "parallel", "parallel"]} ins(%4295, %collapsed_2737 : tensor<1x4x384x384xf32>, tensor<1x4x384xf32>) outs(%4301 : tensor<1x4x384x384xf32>) {
    ^bb0(%in: f32, %in_2787: f32, %out: f32):
      %4421 = arith.mulf %in, %in_2787 : f32
      linalg.yield %4421 : f32
    } -> tensor<1x4x384x384xf32>
    %4303 = tensor.empty() : tensor<1x4x384x32xf32>
    %4304 = linalg.generic {indexing_maps = [#map7, #map5], iterator_types = ["parallel", "parallel", "parallel", "parallel"]} ins(%expanded_2706 : tensor<1x384x4x32xf32>) outs(%4303 : tensor<1x4x384x32xf32>) {
    ^bb0(%in: f32, %out: f32):
      linalg.yield %in : f32
    } -> tensor<1x4x384x32xf32>
    %collapsed_2738 = tensor.collapse_shape %4302 [[0, 1], [2], [3]] : tensor<1x4x384x384xf32> into tensor<4x384x384xf32>
    %extracted_slice_2739 = tensor.extract_slice %collapsed_2738[0, 0, 0] [1, 384, 384] [1, 1, 1] : tensor<4x384x384xf32> to tensor<1x384x384xf32>
    %extracted_slice_2740 = tensor.extract_slice %collapsed_2738[1, 0, 0] [1, 384, 384] [1, 1, 1] : tensor<4x384x384xf32> to tensor<1x384x384xf32>
    %extracted_slice_2741 = tensor.extract_slice %collapsed_2738[2, 0, 0] [1, 384, 384] [1, 1, 1] : tensor<4x384x384xf32> to tensor<1x384x384xf32>
    %extracted_slice_2742 = tensor.extract_slice %collapsed_2738[3, 0, 0] [1, 384, 384] [1, 1, 1] : tensor<4x384x384xf32> to tensor<1x384x384xf32>
    %collapsed_2743 = tensor.collapse_shape %4304 [[0, 1], [2], [3]] : tensor<1x4x384x32xf32> into tensor<4x384x32xf32>
    %extracted_slice_2744 = tensor.extract_slice %collapsed_2743[0, 0, 0] [1, 384, 32] [1, 1, 1] : tensor<4x384x32xf32> to tensor<1x384x32xf32>
    %extracted_slice_2745 = tensor.extract_slice %collapsed_2743[1, 0, 0] [1, 384, 32] [1, 1, 1] : tensor<4x384x32xf32> to tensor<1x384x32xf32>
    %extracted_slice_2746 = tensor.extract_slice %collapsed_2743[2, 0, 0] [1, 384, 32] [1, 1, 1] : tensor<4x384x32xf32> to tensor<1x384x32xf32>
    %extracted_slice_2747 = tensor.extract_slice %collapsed_2743[3, 0, 0] [1, 384, 32] [1, 1, 1] : tensor<4x384x32xf32> to tensor<1x384x32xf32>
    %collapsed_2748 = tensor.collapse_shape %extracted_slice_2744 [[0, 1], [2]] : tensor<1x384x32xf32> into tensor<384x32xf32>
    %collapsed_2749 = tensor.collapse_shape %extracted_slice_2745 [[0, 1], [2]] : tensor<1x384x32xf32> into tensor<384x32xf32>
    %collapsed_2750 = tensor.collapse_shape %extracted_slice_2746 [[0, 1], [2]] : tensor<1x384x32xf32> into tensor<384x32xf32>
    %collapsed_2751 = tensor.collapse_shape %extracted_slice_2747 [[0, 1], [2]] : tensor<1x384x32xf32> into tensor<384x32xf32>
    %collapsed_2752 = tensor.collapse_shape %extracted_slice_2739 [[0, 1], [2]] : tensor<1x384x384xf32> into tensor<384x384xf32>
    %4305 = tensor.empty() : tensor<384x32xf32>
    %4306 = linalg.fill ins(%cst_607 : f32) outs(%4305 : tensor<384x32xf32>) -> tensor<384x32xf32>
    %4307 = tensor.empty() : tensor<384x32xf32>
    %4308 = linalg.matmul ins(%collapsed_2752, %collapsed_2748 : tensor<384x384xf32>, tensor<384x32xf32>) outs(%4306 : tensor<384x32xf32>) -> tensor<384x32xf32>
    %4309 = linalg.generic {indexing_maps = [#map6, #map, #map], iterator_types = ["parallel", "parallel"]} ins(%cst_610, %4308 : tensor<32xf32>, tensor<384x32xf32>) outs(%4307 : tensor<384x32xf32>) {
    ^bb0(%in: f32, %in_2787: f32, %out: f32):
      %4421 = arith.addf %in, %in_2787 : f32
      linalg.yield %4421 : f32
    } -> tensor<384x32xf32>
    %collapsed_2753 = tensor.collapse_shape %extracted_slice_2740 [[0, 1], [2]] : tensor<1x384x384xf32> into tensor<384x384xf32>
    %4310 = tensor.empty() : tensor<384x32xf32>
    %4311 = linalg.fill ins(%cst_607 : f32) outs(%4310 : tensor<384x32xf32>) -> tensor<384x32xf32>
    %4312 = tensor.empty() : tensor<384x32xf32>
    %4313 = linalg.matmul ins(%collapsed_2753, %collapsed_2749 : tensor<384x384xf32>, tensor<384x32xf32>) outs(%4311 : tensor<384x32xf32>) -> tensor<384x32xf32>
    %4314 = linalg.generic {indexing_maps = [#map6, #map, #map], iterator_types = ["parallel", "parallel"]} ins(%cst_610, %4313 : tensor<32xf32>, tensor<384x32xf32>) outs(%4312 : tensor<384x32xf32>) {
    ^bb0(%in: f32, %in_2787: f32, %out: f32):
      %4421 = arith.addf %in, %in_2787 : f32
      linalg.yield %4421 : f32
    } -> tensor<384x32xf32>
    %collapsed_2754 = tensor.collapse_shape %extracted_slice_2741 [[0, 1], [2]] : tensor<1x384x384xf32> into tensor<384x384xf32>
    %4315 = tensor.empty() : tensor<384x32xf32>
    %4316 = linalg.fill ins(%cst_607 : f32) outs(%4315 : tensor<384x32xf32>) -> tensor<384x32xf32>
    %4317 = tensor.empty() : tensor<384x32xf32>
    %4318 = linalg.matmul ins(%collapsed_2754, %collapsed_2750 : tensor<384x384xf32>, tensor<384x32xf32>) outs(%4316 : tensor<384x32xf32>) -> tensor<384x32xf32>
    %4319 = linalg.generic {indexing_maps = [#map6, #map, #map], iterator_types = ["parallel", "parallel"]} ins(%cst_610, %4318 : tensor<32xf32>, tensor<384x32xf32>) outs(%4317 : tensor<384x32xf32>) {
    ^bb0(%in: f32, %in_2787: f32, %out: f32):
      %4421 = arith.addf %in, %in_2787 : f32
      linalg.yield %4421 : f32
    } -> tensor<384x32xf32>
    %collapsed_2755 = tensor.collapse_shape %extracted_slice_2742 [[0, 1], [2]] : tensor<1x384x384xf32> into tensor<384x384xf32>
    %4320 = tensor.empty() : tensor<384x32xf32>
    %4321 = linalg.fill ins(%cst_607 : f32) outs(%4320 : tensor<384x32xf32>) -> tensor<384x32xf32>
    %4322 = tensor.empty() : tensor<384x32xf32>
    %4323 = linalg.matmul ins(%collapsed_2755, %collapsed_2751 : tensor<384x384xf32>, tensor<384x32xf32>) outs(%4321 : tensor<384x32xf32>) -> tensor<384x32xf32>
    %4324 = linalg.generic {indexing_maps = [#map6, #map, #map], iterator_types = ["parallel", "parallel"]} ins(%cst_610, %4323 : tensor<32xf32>, tensor<384x32xf32>) outs(%4322 : tensor<384x32xf32>) {
    ^bb0(%in: f32, %in_2787: f32, %out: f32):
      %4421 = arith.addf %in, %in_2787 : f32
      linalg.yield %4421 : f32
    } -> tensor<384x32xf32>
    %4325 = tensor.empty() : tensor<1536x32xf32>
    %inserted_slice_2756 = tensor.insert_slice %4309 into %4325[0, 0] [384, 32] [1, 1] : tensor<384x32xf32> into tensor<1536x32xf32>
    %inserted_slice_2757 = tensor.insert_slice %4314 into %inserted_slice_2756[384, 0] [384, 32] [1, 1] : tensor<384x32xf32> into tensor<1536x32xf32>
    %inserted_slice_2758 = tensor.insert_slice %4319 into %inserted_slice_2757[768, 0] [384, 32] [1, 1] : tensor<384x32xf32> into tensor<1536x32xf32>
    %inserted_slice_2759 = tensor.insert_slice %4324 into %inserted_slice_2758[1152, 0] [384, 32] [1, 1] : tensor<384x32xf32> into tensor<1536x32xf32>
    %expanded_2760 = tensor.expand_shape %inserted_slice_2759 [[0, 1, 2], [3]] : tensor<1536x32xf32> into tensor<1x4x384x32xf32>
    %4326 = tensor.empty() : tensor<1x384x4x32xf32>
    %4327 = linalg.generic {indexing_maps = [#map7, #map5], iterator_types = ["parallel", "parallel", "parallel", "parallel"]} ins(%expanded_2760 : tensor<1x4x384x32xf32>) outs(%4326 : tensor<1x384x4x32xf32>) {
    ^bb0(%in: f32, %out: f32):
      linalg.yield %in : f32
    } -> tensor<1x384x4x32xf32>
    %collapsed_2761 = tensor.collapse_shape %4327 [[0, 1], [2, 3]] : tensor<1x384x4x32xf32> into tensor<384x128xf32>
    %4328 = tensor.empty() : tensor<384x128xf32>
    %4329 = linalg.fill ins(%cst_607 : f32) outs(%4328 : tensor<384x128xf32>) -> tensor<384x128xf32>
    %4330 = tensor.empty() : tensor<384x128xf32>
    %4331 = linalg.matmul ins(%collapsed_2761, %cst_596 : tensor<384x128xf32>, tensor<128x128xf32>) outs(%4329 : tensor<384x128xf32>) -> tensor<384x128xf32>
    %4332 = linalg.generic {indexing_maps = [#map6, #map, #map], iterator_types = ["parallel", "parallel"]} ins(%cst_941, %4331 : tensor<128xf32>, tensor<384x128xf32>) outs(%4330 : tensor<384x128xf32>) {
    ^bb0(%in: f32, %in_2787: f32, %out: f32):
      %4421 = arith.addf %in, %in_2787 : f32
      linalg.yield %4421 : f32
    } -> tensor<384x128xf32>
    %expanded_2762 = tensor.expand_shape %4332 [[0, 1], [2]] : tensor<384x128xf32> into tensor<1x384x128xf32>
    %4333 = tensor.empty() : tensor<1x384x128xf32>
    %4334 = linalg.generic {indexing_maps = [#map3, #map3, #map3], iterator_types = ["parallel", "parallel", "parallel"]} ins(%expanded_2762, %expanded_2708 : tensor<1x384x128xf32>, tensor<1x384x128xf32>) outs(%4333 : tensor<1x384x128xf32>) {
    ^bb0(%in: f32, %in_2787: f32, %out: f32):
      %4421 = arith.addf %in, %in_2787 : f32
      linalg.yield %4421 : f32
    } -> tensor<1x384x128xf32>
    %4335 = tensor.empty() : tensor<1x384x128xf32>
    %4336 = linalg.generic {indexing_maps = [#map3, #map1, #map3], iterator_types = ["parallel", "parallel", "parallel"]} ins(%4334, %cst_6 : tensor<1x384x128xf32>, tensor<1x128xf32>) outs(%4335 : tensor<1x384x128xf32>) {
    ^bb0(%in: f32, %in_2787: f32, %out: f32):
      %4421 = arith.mulf %in, %in_2787 : f32
      linalg.yield %4421 : f32
    } -> tensor<1x384x128xf32>
    %4337 = tensor.empty() : tensor<1x384x128xf32>
    %4338 = linalg.generic {indexing_maps = [#map3, #map1, #map3], iterator_types = ["parallel", "parallel", "parallel"]} ins(%4336, %cst_5 : tensor<1x384x128xf32>, tensor<1x128xf32>) outs(%4337 : tensor<1x384x128xf32>) {
    ^bb0(%in: f32, %in_2787: f32, %out: f32):
      %4421 = arith.addf %in, %in_2787 : f32
      linalg.yield %4421 : f32
    } -> tensor<1x384x128xf32>
    %collapsed_2763 = tensor.collapse_shape %4334 [[0, 1], [2]] : tensor<1x384x128xf32> into tensor<384x128xf32>
    %4339 = tensor.empty() : tensor<384x512xf32>
    %4340 = linalg.fill ins(%cst_607 : f32) outs(%4339 : tensor<384x512xf32>) -> tensor<384x512xf32>
    %4341 = tensor.empty() : tensor<384x512xf32>
    %4342 = linalg.matmul ins(%collapsed_2763, %cst_597 : tensor<384x128xf32>, tensor<128x512xf32>) outs(%4340 : tensor<384x512xf32>) -> tensor<384x512xf32>
    %4343 = linalg.generic {indexing_maps = [#map6, #map, #map], iterator_types = ["parallel", "parallel"]} ins(%cst_942, %4342 : tensor<512xf32>, tensor<384x512xf32>) outs(%4341 : tensor<384x512xf32>) {
    ^bb0(%in: f32, %in_2787: f32, %out: f32):
      %4421 = arith.addf %in, %in_2787 : f32
      linalg.yield %4421 : f32
    } -> tensor<384x512xf32>
    %expanded_2764 = tensor.expand_shape %4343 [[0, 1], [2]] : tensor<384x512xf32> into tensor<1x384x512xf32>
    %4344 = tensor.empty() : tensor<1x384x512xf32>
    %4345 = linalg.generic {indexing_maps = [#map3, #map3], iterator_types = ["parallel", "parallel", "parallel"]} ins(%expanded_2764 : tensor<1x384x512xf32>) outs(%4344 : tensor<1x384x512xf32>) {
    ^bb0(%in: f32, %out: f32):
      %4421 = arith.minf %in, %cst_239 : f32
      %4422 = arith.maxf %4421, %cst_607 : f32
      linalg.yield %4422 : f32
    } -> tensor<1x384x512xf32>
    %collapsed_2765 = tensor.collapse_shape %4345 [[0, 1], [2]] : tensor<1x384x512xf32> into tensor<384x512xf32>
    %4346 = tensor.empty() : tensor<384x128xf32>
    %4347 = linalg.fill ins(%cst_607 : f32) outs(%4346 : tensor<384x128xf32>) -> tensor<384x128xf32>
    %4348 = tensor.empty() : tensor<384x128xf32>
    %4349 = linalg.matmul ins(%collapsed_2765, %cst_598 : tensor<384x512xf32>, tensor<512x128xf32>) outs(%4347 : tensor<384x128xf32>) -> tensor<384x128xf32>
    %4350 = linalg.generic {indexing_maps = [#map6, #map, #map], iterator_types = ["parallel", "parallel"]} ins(%cst_943, %4349 : tensor<128xf32>, tensor<384x128xf32>) outs(%4348 : tensor<384x128xf32>) {
    ^bb0(%in: f32, %in_2787: f32, %out: f32):
      %4421 = arith.addf %in, %in_2787 : f32
      linalg.yield %4421 : f32
    } -> tensor<384x128xf32>
    %expanded_2766 = tensor.expand_shape %4350 [[0, 1], [2]] : tensor<384x128xf32> into tensor<1x384x128xf32>
    %4351 = tensor.empty() : tensor<1x384x128xf32>
    %4352 = linalg.generic {indexing_maps = [#map3, #map3, #map3], iterator_types = ["parallel", "parallel", "parallel"]} ins(%expanded_2766, %4338 : tensor<1x384x128xf32>, tensor<1x384x128xf32>) outs(%4351 : tensor<1x384x128xf32>) {
    ^bb0(%in: f32, %in_2787: f32, %out: f32):
      %4421 = arith.addf %in, %in_2787 : f32
      linalg.yield %4421 : f32
    } -> tensor<1x384x128xf32>
    %4353 = tensor.empty() : tensor<1x384x128xf32>
    %4354 = linalg.generic {indexing_maps = [#map3, #map1, #map3], iterator_types = ["parallel", "parallel", "parallel"]} ins(%4352, %cst_4 : tensor<1x384x128xf32>, tensor<1x128xf32>) outs(%4353 : tensor<1x384x128xf32>) {
    ^bb0(%in: f32, %in_2787: f32, %out: f32):
      %4421 = arith.mulf %in, %in_2787 : f32
      linalg.yield %4421 : f32
    } -> tensor<1x384x128xf32>
    %4355 = tensor.empty() : tensor<1x384x128xf32>
    %4356 = linalg.generic {indexing_maps = [#map3, #map1, #map3], iterator_types = ["parallel", "parallel", "parallel"]} ins(%4354, %cst_3 : tensor<1x384x128xf32>, tensor<1x128xf32>) outs(%4355 : tensor<1x384x128xf32>) {
    ^bb0(%in: f32, %in_2787: f32, %out: f32):
      %4421 = arith.addf %in, %in_2787 : f32
      linalg.yield %4421 : f32
    } -> tensor<1x384x128xf32>
    %collapsed_2767 = tensor.collapse_shape %4352 [[0, 1], [2]] : tensor<1x384x128xf32> into tensor<384x128xf32>
    %4357 = tensor.empty() : tensor<384x512xf32>
    %4358 = linalg.fill ins(%cst_607 : f32) outs(%4357 : tensor<384x512xf32>) -> tensor<384x512xf32>
    %4359 = tensor.empty() : tensor<384x512xf32>
    %4360 = linalg.matmul ins(%collapsed_2767, %cst_599 : tensor<384x128xf32>, tensor<128x512xf32>) outs(%4358 : tensor<384x512xf32>) -> tensor<384x512xf32>
    %4361 = linalg.generic {indexing_maps = [#map6, #map, #map], iterator_types = ["parallel", "parallel"]} ins(%cst_944, %4360 : tensor<512xf32>, tensor<384x512xf32>) outs(%4359 : tensor<384x512xf32>) {
    ^bb0(%in: f32, %in_2787: f32, %out: f32):
      %4421 = arith.addf %in, %in_2787 : f32
      linalg.yield %4421 : f32
    } -> tensor<384x512xf32>
    %expanded_2768 = tensor.expand_shape %4361 [[0, 1], [2]] : tensor<384x512xf32> into tensor<1x384x512xf32>
    %4362 = tensor.empty() : tensor<1x384x512xf32>
    %4363 = linalg.generic {indexing_maps = [#map3, #map3], iterator_types = ["parallel", "parallel", "parallel"]} ins(%expanded_2768 : tensor<1x384x512xf32>) outs(%4362 : tensor<1x384x512xf32>) {
    ^bb0(%in: f32, %out: f32):
      %4421 = arith.minf %in, %cst_239 : f32
      %4422 = arith.maxf %4421, %cst_607 : f32
      linalg.yield %4422 : f32
    } -> tensor<1x384x512xf32>
    %collapsed_2769 = tensor.collapse_shape %4363 [[0, 1], [2]] : tensor<1x384x512xf32> into tensor<384x512xf32>
    %4364 = tensor.empty() : tensor<384x128xf32>
    %4365 = linalg.fill ins(%cst_607 : f32) outs(%4364 : tensor<384x128xf32>) -> tensor<384x128xf32>
    %4366 = tensor.empty() : tensor<384x128xf32>
    %4367 = linalg.matmul ins(%collapsed_2769, %cst_600 : tensor<384x512xf32>, tensor<512x128xf32>) outs(%4365 : tensor<384x128xf32>) -> tensor<384x128xf32>
    %4368 = linalg.generic {indexing_maps = [#map6, #map, #map], iterator_types = ["parallel", "parallel"]} ins(%cst_945, %4367 : tensor<128xf32>, tensor<384x128xf32>) outs(%4366 : tensor<384x128xf32>) {
    ^bb0(%in: f32, %in_2787: f32, %out: f32):
      %4421 = arith.addf %in, %in_2787 : f32
      linalg.yield %4421 : f32
    } -> tensor<384x128xf32>
    %expanded_2770 = tensor.expand_shape %4368 [[0, 1], [2]] : tensor<384x128xf32> into tensor<1x384x128xf32>
    %4369 = tensor.empty() : tensor<1x384x128xf32>
    %4370 = linalg.generic {indexing_maps = [#map3, #map3, #map3], iterator_types = ["parallel", "parallel", "parallel"]} ins(%expanded_2770, %4356 : tensor<1x384x128xf32>, tensor<1x384x128xf32>) outs(%4369 : tensor<1x384x128xf32>) {
    ^bb0(%in: f32, %in_2787: f32, %out: f32):
      %4421 = arith.addf %in, %in_2787 : f32
      linalg.yield %4421 : f32
    } -> tensor<1x384x128xf32>
    %4371 = tensor.empty() : tensor<1x384x128xf32>
    %4372 = linalg.generic {indexing_maps = [#map3, #map1, #map3], iterator_types = ["parallel", "parallel", "parallel"]} ins(%4370, %cst_2 : tensor<1x384x128xf32>, tensor<1x128xf32>) outs(%4371 : tensor<1x384x128xf32>) {
    ^bb0(%in: f32, %in_2787: f32, %out: f32):
      %4421 = arith.mulf %in, %in_2787 : f32
      linalg.yield %4421 : f32
    } -> tensor<1x384x128xf32>
    %4373 = tensor.empty() : tensor<1x384x128xf32>
    %4374 = linalg.generic {indexing_maps = [#map3, #map1, #map3], iterator_types = ["parallel", "parallel", "parallel"]} ins(%4372, %cst_1 : tensor<1x384x128xf32>, tensor<1x128xf32>) outs(%4373 : tensor<1x384x128xf32>) {
    ^bb0(%in: f32, %in_2787: f32, %out: f32):
      %4421 = arith.addf %in, %in_2787 : f32
      linalg.yield %4421 : f32
    } -> tensor<1x384x128xf32>
    %collapsed_2771 = tensor.collapse_shape %4370 [[0, 1], [2]] : tensor<1x384x128xf32> into tensor<384x128xf32>
    %4375 = tensor.empty() : tensor<384x512xf32>
    %4376 = linalg.fill ins(%cst_607 : f32) outs(%4375 : tensor<384x512xf32>) -> tensor<384x512xf32>
    %4377 = tensor.empty() : tensor<384x512xf32>
    %4378 = linalg.matmul ins(%collapsed_2771, %cst_601 : tensor<384x128xf32>, tensor<128x512xf32>) outs(%4376 : tensor<384x512xf32>) -> tensor<384x512xf32>
    %4379 = linalg.generic {indexing_maps = [#map6, #map, #map], iterator_types = ["parallel", "parallel"]} ins(%cst_946, %4378 : tensor<512xf32>, tensor<384x512xf32>) outs(%4377 : tensor<384x512xf32>) {
    ^bb0(%in: f32, %in_2787: f32, %out: f32):
      %4421 = arith.addf %in, %in_2787 : f32
      linalg.yield %4421 : f32
    } -> tensor<384x512xf32>
    %expanded_2772 = tensor.expand_shape %4379 [[0, 1], [2]] : tensor<384x512xf32> into tensor<1x384x512xf32>
    %4380 = tensor.empty() : tensor<1x384x512xf32>
    %4381 = linalg.generic {indexing_maps = [#map3, #map3], iterator_types = ["parallel", "parallel", "parallel"]} ins(%expanded_2772 : tensor<1x384x512xf32>) outs(%4380 : tensor<1x384x512xf32>) {
    ^bb0(%in: f32, %out: f32):
      %4421 = arith.minf %in, %cst_239 : f32
      %4422 = arith.maxf %4421, %cst_607 : f32
      linalg.yield %4422 : f32
    } -> tensor<1x384x512xf32>
    %collapsed_2773 = tensor.collapse_shape %4381 [[0, 1], [2]] : tensor<1x384x512xf32> into tensor<384x512xf32>
    %4382 = tensor.empty() : tensor<384x128xf32>
    %4383 = linalg.fill ins(%cst_607 : f32) outs(%4382 : tensor<384x128xf32>) -> tensor<384x128xf32>
    %4384 = tensor.empty() : tensor<384x128xf32>
    %4385 = linalg.matmul ins(%collapsed_2773, %cst_602 : tensor<384x512xf32>, tensor<512x128xf32>) outs(%4383 : tensor<384x128xf32>) -> tensor<384x128xf32>
    %4386 = linalg.generic {indexing_maps = [#map6, #map, #map], iterator_types = ["parallel", "parallel"]} ins(%cst_947, %4385 : tensor<128xf32>, tensor<384x128xf32>) outs(%4384 : tensor<384x128xf32>) {
    ^bb0(%in: f32, %in_2787: f32, %out: f32):
      %4421 = arith.addf %in, %in_2787 : f32
      linalg.yield %4421 : f32
    } -> tensor<384x128xf32>
    %expanded_2774 = tensor.expand_shape %4386 [[0, 1], [2]] : tensor<384x128xf32> into tensor<1x384x128xf32>
    %4387 = tensor.empty() : tensor<1x384x128xf32>
    %4388 = linalg.generic {indexing_maps = [#map3, #map3, #map3], iterator_types = ["parallel", "parallel", "parallel"]} ins(%expanded_2774, %4374 : tensor<1x384x128xf32>, tensor<1x384x128xf32>) outs(%4387 : tensor<1x384x128xf32>) {
    ^bb0(%in: f32, %in_2787: f32, %out: f32):
      %4421 = arith.addf %in, %in_2787 : f32
      linalg.yield %4421 : f32
    } -> tensor<1x384x128xf32>
    %4389 = tensor.empty() : tensor<1x384x128xf32>
    %4390 = linalg.generic {indexing_maps = [#map3, #map1, #map3], iterator_types = ["parallel", "parallel", "parallel"]} ins(%4388, %cst_0 : tensor<1x384x128xf32>, tensor<1x128xf32>) outs(%4389 : tensor<1x384x128xf32>) {
    ^bb0(%in: f32, %in_2787: f32, %out: f32):
      %4421 = arith.mulf %in, %in_2787 : f32
      linalg.yield %4421 : f32
    } -> tensor<1x384x128xf32>
    %4391 = tensor.empty() : tensor<1x384x128xf32>
    %4392 = linalg.generic {indexing_maps = [#map3, #map1, #map3], iterator_types = ["parallel", "parallel", "parallel"]} ins(%4390, %cst : tensor<1x384x128xf32>, tensor<1x128xf32>) outs(%4391 : tensor<1x384x128xf32>) {
    ^bb0(%in: f32, %in_2787: f32, %out: f32):
      %4421 = arith.addf %in, %in_2787 : f32
      linalg.yield %4421 : f32
    } -> tensor<1x384x128xf32>
    %collapsed_2775 = tensor.collapse_shape %4388 [[0, 1], [2]] : tensor<1x384x128xf32> into tensor<384x128xf32>
    %4393 = tensor.empty() : tensor<384x512xf32>
    %4394 = linalg.fill ins(%cst_607 : f32) outs(%4393 : tensor<384x512xf32>) -> tensor<384x512xf32>
    %4395 = tensor.empty() : tensor<384x512xf32>
    %4396 = linalg.matmul ins(%collapsed_2775, %cst_603 : tensor<384x128xf32>, tensor<128x512xf32>) outs(%4394 : tensor<384x512xf32>) -> tensor<384x512xf32>
    %4397 = linalg.generic {indexing_maps = [#map6, #map, #map], iterator_types = ["parallel", "parallel"]} ins(%cst_948, %4396 : tensor<512xf32>, tensor<384x512xf32>) outs(%4395 : tensor<384x512xf32>) {
    ^bb0(%in: f32, %in_2787: f32, %out: f32):
      %4421 = arith.addf %in, %in_2787 : f32
      linalg.yield %4421 : f32
    } -> tensor<384x512xf32>
    %expanded_2776 = tensor.expand_shape %4397 [[0, 1], [2]] : tensor<384x512xf32> into tensor<1x384x512xf32>
    %4398 = tensor.empty() : tensor<1x384x512xf32>
    %4399 = linalg.generic {indexing_maps = [#map3, #map3], iterator_types = ["parallel", "parallel", "parallel"]} ins(%expanded_2776 : tensor<1x384x512xf32>) outs(%4398 : tensor<1x384x512xf32>) {
    ^bb0(%in: f32, %out: f32):
      %4421 = arith.minf %in, %cst_239 : f32
      %4422 = arith.maxf %4421, %cst_607 : f32
      linalg.yield %4422 : f32
    } -> tensor<1x384x512xf32>
    %collapsed_2777 = tensor.collapse_shape %4399 [[0, 1], [2]] : tensor<1x384x512xf32> into tensor<384x512xf32>
    %4400 = tensor.empty() : tensor<384x128xf32>
    %4401 = linalg.fill ins(%cst_607 : f32) outs(%4400 : tensor<384x128xf32>) -> tensor<384x128xf32>
    %4402 = tensor.empty() : tensor<384x128xf32>
    %4403 = linalg.matmul ins(%collapsed_2777, %cst_604 : tensor<384x512xf32>, tensor<512x128xf32>) outs(%4401 : tensor<384x128xf32>) -> tensor<384x128xf32>
    %4404 = linalg.generic {indexing_maps = [#map6, #map, #map], iterator_types = ["parallel", "parallel"]} ins(%cst_949, %4403 : tensor<128xf32>, tensor<384x128xf32>) outs(%4402 : tensor<384x128xf32>) {
    ^bb0(%in: f32, %in_2787: f32, %out: f32):
      %4421 = arith.addf %in, %in_2787 : f32
      linalg.yield %4421 : f32
    } -> tensor<384x128xf32>
    %expanded_2778 = tensor.expand_shape %4404 [[0, 1], [2]] : tensor<384x128xf32> into tensor<1x384x128xf32>
    %4405 = tensor.empty() : tensor<1x384x128xf32>
    %4406 = linalg.generic {indexing_maps = [#map3, #map3, #map3], iterator_types = ["parallel", "parallel", "parallel"]} ins(%expanded_2778, %4392 : tensor<1x384x128xf32>, tensor<1x384x128xf32>) outs(%4405 : tensor<1x384x128xf32>) {
    ^bb0(%in: f32, %in_2787: f32, %out: f32):
      %4421 = arith.addf %in, %in_2787 : f32
      linalg.yield %4421 : f32
    } -> tensor<1x384x128xf32>
    %collapsed_2779 = tensor.collapse_shape %4406 [[0, 1], [2]] : tensor<1x384x128xf32> into tensor<384x128xf32>
    %4407 = tensor.empty() : tensor<384x512xf32>
    %4408 = linalg.fill ins(%cst_607 : f32) outs(%4407 : tensor<384x512xf32>) -> tensor<384x512xf32>
    %4409 = tensor.empty() : tensor<384x512xf32>
    %4410 = linalg.matmul ins(%collapsed_2779, %cst_605 : tensor<384x128xf32>, tensor<128x512xf32>) outs(%4408 : tensor<384x512xf32>) -> tensor<384x512xf32>
    %4411 = linalg.generic {indexing_maps = [#map6, #map, #map], iterator_types = ["parallel", "parallel"]} ins(%cst_950, %4410 : tensor<512xf32>, tensor<384x512xf32>) outs(%4409 : tensor<384x512xf32>) {
    ^bb0(%in: f32, %in_2787: f32, %out: f32):
      %4421 = arith.addf %in, %in_2787 : f32
      linalg.yield %4421 : f32
    } -> tensor<384x512xf32>
    %expanded_2780 = tensor.expand_shape %4411 [[0, 1], [2]] : tensor<384x512xf32> into tensor<1x384x512xf32>
    %4412 = tensor.empty() : tensor<1x384x512xf32>
    %4413 = linalg.generic {indexing_maps = [#map3, #map3, #map3], iterator_types = ["parallel", "parallel", "parallel"]} ins(%expanded_2780, %4234 : tensor<1x384x512xf32>, tensor<1x384x512xf32>) outs(%4412 : tensor<1x384x512xf32>) {
    ^bb0(%in: f32, %in_2787: f32, %out: f32):
      %4421 = arith.addf %in, %in_2787 : f32
      linalg.yield %4421 : f32
    } -> tensor<1x384x512xf32>
    %collapsed_2781 = tensor.collapse_shape %4413 [[0, 1], [2]] : tensor<1x384x512xf32> into tensor<384x512xf32>
    %4414 = tensor.empty() : tensor<384x2xf32>
    %4415 = linalg.fill ins(%cst_607 : f32) outs(%4414 : tensor<384x2xf32>) -> tensor<384x2xf32>
    %4416 = tensor.empty() : tensor<384x2xf32>
    %4417 = linalg.matmul ins(%collapsed_2781, %cst_606 : tensor<384x512xf32>, tensor<512x2xf32>) outs(%4415 : tensor<384x2xf32>) -> tensor<384x2xf32>
    %4418 = linalg.generic {indexing_maps = [#map6, #map, #map], iterator_types = ["parallel", "parallel"]} ins(%cst_951, %4417 : tensor<2xf32>, tensor<384x2xf32>) outs(%4416 : tensor<384x2xf32>) {
    ^bb0(%in: f32, %in_2787: f32, %out: f32):
      %4421 = arith.addf %in, %in_2787 : f32
      linalg.yield %4421 : f32
    } -> tensor<384x2xf32>
    %expanded_2782 = tensor.expand_shape %4418 [[0, 1], [2]] : tensor<384x2xf32> into tensor<1x384x2xf32>
    %4419 = tensor.empty() : tensor<2x1x384xf32>
    %4420 = linalg.generic {indexing_maps = [#map12, #map3], iterator_types = ["parallel", "parallel", "parallel"]} ins(%expanded_2782 : tensor<1x384x2xf32>) outs(%4419 : tensor<2x1x384xf32>) {
    ^bb0(%in: f32, %out: f32):
      linalg.yield %in : f32
    } -> tensor<2x1x384xf32>
    %extracted_slice_2783 = tensor.extract_slice %4420[0, 0, 0] [1, 1, 384] [1, 1, 1] : tensor<2x1x384xf32> to tensor<1x1x384xf32>
    %collapsed_2784 = tensor.collapse_shape %extracted_slice_2783 [[0, 1], [2]] : tensor<1x1x384xf32> into tensor<1x384xf32>
    %extracted_slice_2785 = tensor.extract_slice %4420[1, 0, 0] [1, 1, 384] [1, 1, 1] : tensor<2x1x384xf32> to tensor<1x1x384xf32>
    %collapsed_2786 = tensor.collapse_shape %extracted_slice_2785 [[0, 1], [2]] : tensor<1x1x384xf32> into tensor<1x384xf32>
    return %collapsed_2786, %collapsed_2784 : tensor<1x384xf32>, tensor<1x384xf32>
  }
}

